saved_model_schema_version: 1
meta_graphs {
  meta_info_def {
    stripped_op_list {
      op {
        name: "AddV2"
        input_arg {
          name: "x"
          type_attr: "T"
        }
        input_arg {
          name: "y"
          type_attr: "T"
        }
        output_arg {
          name: "z"
          type_attr: "T"
        }
        attr {
          name: "T"
          type: "type"
          allowed_values {
            list {
              type: DT_BFLOAT16
              type: DT_HALF
              type: DT_FLOAT
              type: DT_DOUBLE
              type: DT_UINT8
              type: DT_UINT16
              type: DT_UINT32
              type: DT_UINT64
              type: DT_INT8
              type: DT_INT16
              type: DT_INT32
              type: DT_INT64
              type: DT_COMPLEX64
              type: DT_COMPLEX128
            }
          }
        }
        is_aggregate: true
        is_commutative: true
      }
      op {
        name: "ArgMax"
        input_arg {
          name: "input"
          type_attr: "T"
        }
        input_arg {
          name: "dimension"
          type_attr: "Tidx"
        }
        output_arg {
          name: "output"
          type_attr: "output_type"
        }
        attr {
          name: "T"
          type: "type"
          allowed_values {
            list {
              type: DT_FLOAT
              type: DT_DOUBLE
              type: DT_INT32
              type: DT_UINT8
              type: DT_INT16
              type: DT_INT8
              type: DT_COMPLEX64
              type: DT_INT64
              type: DT_QINT8
              type: DT_QUINT8
              type: DT_QINT32
              type: DT_BFLOAT16
              type: DT_UINT16
              type: DT_COMPLEX128
              type: DT_HALF
              type: DT_UINT32
              type: DT_UINT64
              type: DT_BOOL
            }
          }
        }
        attr {
          name: "Tidx"
          type: "type"
          default_value {
            type: DT_INT32
          }
          allowed_values {
            list {
              type: DT_INT32
              type: DT_INT64
            }
          }
        }
        attr {
          name: "output_type"
          type: "type"
          default_value {
            type: DT_INT64
          }
          allowed_values {
            list {
              type: DT_INT32
              type: DT_INT64
            }
          }
        }
      }
      op {
        name: "AsString"
        input_arg {
          name: "input"
          type_attr: "T"
        }
        output_arg {
          name: "output"
          type: DT_STRING
        }
        attr {
          name: "T"
          type: "type"
          allowed_values {
            list {
              type: DT_FLOAT
              type: DT_DOUBLE
              type: DT_INT32
              type: DT_UINT8
              type: DT_INT16
              type: DT_INT8
              type: DT_INT64
              type: DT_BFLOAT16
              type: DT_UINT16
              type: DT_HALF
              type: DT_UINT32
              type: DT_UINT64
              type: DT_COMPLEX64
              type: DT_COMPLEX128
              type: DT_BOOL
              type: DT_VARIANT
            }
          }
        }
        attr {
          name: "precision"
          type: "int"
          default_value {
            i: -1
          }
        }
        attr {
          name: "scientific"
          type: "bool"
          default_value {
            b: false
          }
        }
        attr {
          name: "shortest"
          type: "bool"
          default_value {
            b: false
          }
        }
        attr {
          name: "width"
          type: "int"
          default_value {
            i: -1
          }
        }
        attr {
          name: "fill"
          type: "string"
          default_value {
            s: ""
          }
        }
      }
      op {
        name: "AssignVariableOp"
        input_arg {
          name: "resource"
          type: DT_RESOURCE
        }
        input_arg {
          name: "value"
          type_attr: "dtype"
        }
        attr {
          name: "dtype"
          type: "type"
        }
        is_stateful: true
      }
      op {
        name: "BiasAdd"
        input_arg {
          name: "value"
          type_attr: "T"
        }
        input_arg {
          name: "bias"
          type_attr: "T"
        }
        output_arg {
          name: "output"
          type_attr: "T"
        }
        attr {
          name: "T"
          type: "type"
          allowed_values {
            list {
              type: DT_FLOAT
              type: DT_DOUBLE
              type: DT_INT32
              type: DT_UINT8
              type: DT_INT16
              type: DT_INT8
              type: DT_COMPLEX64
              type: DT_INT64
              type: DT_QINT8
              type: DT_QUINT8
              type: DT_QINT32
              type: DT_BFLOAT16
              type: DT_UINT16
              type: DT_COMPLEX128
              type: DT_HALF
              type: DT_UINT32
              type: DT_UINT64
            }
          }
        }
        attr {
          name: "data_format"
          type: "string"
          default_value {
            s: "NHWC"
          }
          allowed_values {
            list {
              s: "NHWC"
              s: "NCHW"
            }
          }
        }
      }
      op {
        name: "Cast"
        input_arg {
          name: "x"
          type_attr: "SrcT"
        }
        output_arg {
          name: "y"
          type_attr: "DstT"
        }
        attr {
          name: "SrcT"
          type: "type"
        }
        attr {
          name: "DstT"
          type: "type"
        }
        attr {
          name: "Truncate"
          type: "bool"
          default_value {
            b: false
          }
        }
      }
      op {
        name: "ConcatV2"
        input_arg {
          name: "values"
          type_attr: "T"
          number_attr: "N"
        }
        input_arg {
          name: "axis"
          type_attr: "Tidx"
        }
        output_arg {
          name: "output"
          type_attr: "T"
        }
        attr {
          name: "N"
          type: "int"
          has_minimum: true
          minimum: 2
        }
        attr {
          name: "T"
          type: "type"
        }
        attr {
          name: "Tidx"
          type: "type"
          default_value {
            type: DT_INT32
          }
          allowed_values {
            list {
              type: DT_INT32
              type: DT_INT64
            }
          }
        }
      }
      op {
        name: "Const"
        output_arg {
          name: "output"
          type_attr: "dtype"
        }
        attr {
          name: "value"
          type: "tensor"
        }
        attr {
          name: "dtype"
          type: "type"
        }
      }
      op {
        name: "ExpandDims"
        input_arg {
          name: "input"
          type_attr: "T"
        }
        input_arg {
          name: "dim"
          type_attr: "Tdim"
        }
        output_arg {
          name: "output"
          type_attr: "T"
        }
        attr {
          name: "T"
          type: "type"
        }
        attr {
          name: "Tdim"
          type: "type"
          default_value {
            type: DT_INT32
          }
          allowed_values {
            list {
              type: DT_INT32
              type: DT_INT64
            }
          }
        }
      }
      op {
        name: "HistogramSummary"
        input_arg {
          name: "tag"
          type: DT_STRING
        }
        input_arg {
          name: "values"
          type_attr: "T"
        }
        output_arg {
          name: "summary"
          type: DT_STRING
        }
        attr {
          name: "T"
          type: "type"
          default_value {
            type: DT_FLOAT
          }
          allowed_values {
            list {
              type: DT_FLOAT
              type: DT_DOUBLE
              type: DT_INT32
              type: DT_UINT8
              type: DT_INT16
              type: DT_INT8
              type: DT_INT64
              type: DT_BFLOAT16
              type: DT_UINT16
              type: DT_HALF
              type: DT_UINT32
              type: DT_UINT64
            }
          }
        }
      }
      op {
        name: "Identity"
        input_arg {
          name: "input"
          type_attr: "T"
        }
        output_arg {
          name: "output"
          type_attr: "T"
        }
        attr {
          name: "T"
          type: "type"
        }
      }
      op {
        name: "LeakyRelu"
        input_arg {
          name: "features"
          type_attr: "T"
        }
        output_arg {
          name: "activations"
          type_attr: "T"
        }
        attr {
          name: "alpha"
          type: "float"
          default_value {
            f: 0.20000000298023224
          }
        }
        attr {
          name: "T"
          type: "type"
          default_value {
            type: DT_FLOAT
          }
          allowed_values {
            list {
              type: DT_HALF
              type: DT_BFLOAT16
              type: DT_FLOAT
              type: DT_DOUBLE
            }
          }
        }
      }
      op {
        name: "LessEqual"
        input_arg {
          name: "x"
          type_attr: "T"
        }
        input_arg {
          name: "y"
          type_attr: "T"
        }
        output_arg {
          name: "z"
          type: DT_BOOL
        }
        attr {
          name: "T"
          type: "type"
          allowed_values {
            list {
              type: DT_FLOAT
              type: DT_DOUBLE
              type: DT_INT32
              type: DT_UINT8
              type: DT_INT16
              type: DT_INT8
              type: DT_INT64
              type: DT_BFLOAT16
              type: DT_UINT16
              type: DT_HALF
              type: DT_UINT32
              type: DT_UINT64
            }
          }
        }
      }
      op {
        name: "MatMul"
        input_arg {
          name: "a"
          type_attr: "T"
        }
        input_arg {
          name: "b"
          type_attr: "T"
        }
        output_arg {
          name: "product"
          type_attr: "T"
        }
        attr {
          name: "transpose_a"
          type: "bool"
          default_value {
            b: false
          }
        }
        attr {
          name: "transpose_b"
          type: "bool"
          default_value {
            b: false
          }
        }
        attr {
          name: "T"
          type: "type"
          allowed_values {
            list {
              type: DT_BFLOAT16
              type: DT_HALF
              type: DT_FLOAT
              type: DT_DOUBLE
              type: DT_INT32
              type: DT_INT64
              type: DT_COMPLEX64
              type: DT_COMPLEX128
            }
          }
        }
      }
      op {
        name: "MergeV2Checkpoints"
        input_arg {
          name: "checkpoint_prefixes"
          type: DT_STRING
        }
        input_arg {
          name: "destination_prefix"
          type: DT_STRING
        }
        attr {
          name: "delete_old_dirs"
          type: "bool"
          default_value {
            b: true
          }
        }
        is_stateful: true
      }
      op {
        name: "Mul"
        input_arg {
          name: "x"
          type_attr: "T"
        }
        input_arg {
          name: "y"
          type_attr: "T"
        }
        output_arg {
          name: "z"
          type_attr: "T"
        }
        attr {
          name: "T"
          type: "type"
          allowed_values {
            list {
              type: DT_BFLOAT16
              type: DT_HALF
              type: DT_FLOAT
              type: DT_DOUBLE
              type: DT_UINT8
              type: DT_INT8
              type: DT_UINT16
              type: DT_INT16
              type: DT_INT32
              type: DT_UINT32
              type: DT_UINT64
              type: DT_INT64
              type: DT_COMPLEX64
              type: DT_COMPLEX128
            }
          }
        }
        is_commutative: true
      }
      op {
        name: "NoOp"
      }
      op {
        name: "Pack"
        input_arg {
          name: "values"
          type_attr: "T"
          number_attr: "N"
        }
        output_arg {
          name: "output"
          type_attr: "T"
        }
        attr {
          name: "N"
          type: "int"
          has_minimum: true
          minimum: 1
        }
        attr {
          name: "T"
          type: "type"
        }
        attr {
          name: "axis"
          type: "int"
          default_value {
            i: 0
          }
        }
      }
      op {
        name: "ParseExampleV2"
        input_arg {
          name: "serialized"
          type: DT_STRING
        }
        input_arg {
          name: "names"
          type: DT_STRING
        }
        input_arg {
          name: "sparse_keys"
          type: DT_STRING
        }
        input_arg {
          name: "dense_keys"
          type: DT_STRING
        }
        input_arg {
          name: "ragged_keys"
          type: DT_STRING
        }
        input_arg {
          name: "dense_defaults"
          type_list_attr: "Tdense"
        }
        output_arg {
          name: "sparse_indices"
          type: DT_INT64
          number_attr: "num_sparse"
        }
        output_arg {
          name: "sparse_values"
          type_list_attr: "sparse_types"
        }
        output_arg {
          name: "sparse_shapes"
          type: DT_INT64
          number_attr: "num_sparse"
        }
        output_arg {
          name: "dense_values"
          type_list_attr: "Tdense"
        }
        output_arg {
          name: "ragged_values"
          type_list_attr: "ragged_value_types"
        }
        output_arg {
          name: "ragged_row_splits"
          type_list_attr: "ragged_split_types"
        }
        attr {
          name: "Tdense"
          type: "list(type)"
          has_minimum: true
          allowed_values {
            list {
              type: DT_FLOAT
              type: DT_INT64
              type: DT_STRING
            }
          }
        }
        attr {
          name: "num_sparse"
          type: "int"
          has_minimum: true
        }
        attr {
          name: "sparse_types"
          type: "list(type)"
          has_minimum: true
          allowed_values {
            list {
              type: DT_FLOAT
              type: DT_INT64
              type: DT_STRING
            }
          }
        }
        attr {
          name: "ragged_value_types"
          type: "list(type)"
          has_minimum: true
          allowed_values {
            list {
              type: DT_FLOAT
              type: DT_INT64
              type: DT_STRING
            }
          }
        }
        attr {
          name: "ragged_split_types"
          type: "list(type)"
          has_minimum: true
          allowed_values {
            list {
              type: DT_INT32
              type: DT_INT64
            }
          }
        }
        attr {
          name: "dense_shapes"
          type: "list(shape)"
          has_minimum: true
        }
      }
      op {
        name: "Placeholder"
        output_arg {
          name: "output"
          type_attr: "dtype"
        }
        attr {
          name: "dtype"
          type: "type"
        }
        attr {
          name: "shape"
          type: "shape"
          default_value {
            shape {
              unknown_rank: true
            }
          }
        }
      }
      op {
        name: "PlaceholderWithDefault"
        input_arg {
          name: "input"
          type_attr: "dtype"
        }
        output_arg {
          name: "output"
          type_attr: "dtype"
        }
        attr {
          name: "dtype"
          type: "type"
        }
        attr {
          name: "shape"
          type: "shape"
        }
      }
      op {
        name: "RandomUniform"
        input_arg {
          name: "shape"
          type_attr: "T"
        }
        output_arg {
          name: "output"
          type_attr: "dtype"
        }
        attr {
          name: "seed"
          type: "int"
          default_value {
            i: 0
          }
        }
        attr {
          name: "seed2"
          type: "int"
          default_value {
            i: 0
          }
        }
        attr {
          name: "dtype"
          type: "type"
          allowed_values {
            list {
              type: DT_HALF
              type: DT_BFLOAT16
              type: DT_FLOAT
              type: DT_DOUBLE
            }
          }
        }
        attr {
          name: "T"
          type: "type"
          allowed_values {
            list {
              type: DT_INT32
              type: DT_INT64
            }
          }
        }
        is_stateful: true
      }
      op {
        name: "Range"
        input_arg {
          name: "start"
          type_attr: "Tidx"
        }
        input_arg {
          name: "limit"
          type_attr: "Tidx"
        }
        input_arg {
          name: "delta"
          type_attr: "Tidx"
        }
        output_arg {
          name: "output"
          type_attr: "Tidx"
        }
        attr {
          name: "Tidx"
          type: "type"
          default_value {
            type: DT_INT32
          }
          allowed_values {
            list {
              type: DT_BFLOAT16
              type: DT_HALF
              type: DT_FLOAT
              type: DT_DOUBLE
              type: DT_INT8
              type: DT_INT16
              type: DT_INT32
              type: DT_INT64
              type: DT_UINT32
            }
          }
        }
      }
      op {
        name: "ReadVariableOp"
        input_arg {
          name: "resource"
          type: DT_RESOURCE
        }
        output_arg {
          name: "value"
          type_attr: "dtype"
        }
        attr {
          name: "dtype"
          type: "type"
        }
        is_stateful: true
      }
      op {
        name: "RealDiv"
        input_arg {
          name: "x"
          type_attr: "T"
        }
        input_arg {
          name: "y"
          type_attr: "T"
        }
        output_arg {
          name: "z"
          type_attr: "T"
        }
        attr {
          name: "T"
          type: "type"
          allowed_values {
            list {
              type: DT_BFLOAT16
              type: DT_HALF
              type: DT_FLOAT
              type: DT_DOUBLE
              type: DT_UINT8
              type: DT_INT8
              type: DT_UINT16
              type: DT_INT16
              type: DT_INT32
              type: DT_UINT32
              type: DT_UINT64
              type: DT_INT64
              type: DT_COMPLEX64
              type: DT_COMPLEX128
            }
          }
        }
      }
      op {
        name: "Reshape"
        input_arg {
          name: "tensor"
          type_attr: "T"
        }
        input_arg {
          name: "shape"
          type_attr: "Tshape"
        }
        output_arg {
          name: "output"
          type_attr: "T"
        }
        attr {
          name: "T"
          type: "type"
        }
        attr {
          name: "Tshape"
          type: "type"
          default_value {
            type: DT_INT32
          }
          allowed_values {
            list {
              type: DT_INT32
              type: DT_INT64
            }
          }
        }
      }
      op {
        name: "RestoreV2"
        input_arg {
          name: "prefix"
          type: DT_STRING
        }
        input_arg {
          name: "tensor_names"
          type: DT_STRING
        }
        input_arg {
          name: "shape_and_slices"
          type: DT_STRING
        }
        output_arg {
          name: "tensors"
          type_list_attr: "dtypes"
        }
        attr {
          name: "dtypes"
          type: "list(type)"
          has_minimum: true
          minimum: 1
        }
        is_stateful: true
      }
      op {
        name: "SaveV2"
        input_arg {
          name: "prefix"
          type: DT_STRING
        }
        input_arg {
          name: "tensor_names"
          type: DT_STRING
        }
        input_arg {
          name: "shape_and_slices"
          type: DT_STRING
        }
        input_arg {
          name: "tensors"
          type_list_attr: "dtypes"
        }
        attr {
          name: "dtypes"
          type: "list(type)"
          has_minimum: true
          minimum: 1
        }
        is_stateful: true
      }
      op {
        name: "ScalarSummary"
        input_arg {
          name: "tags"
          type: DT_STRING
        }
        input_arg {
          name: "values"
          type_attr: "T"
        }
        output_arg {
          name: "summary"
          type: DT_STRING
        }
        attr {
          name: "T"
          type: "type"
          allowed_values {
            list {
              type: DT_FLOAT
              type: DT_DOUBLE
              type: DT_INT32
              type: DT_UINT8
              type: DT_INT16
              type: DT_INT8
              type: DT_INT64
              type: DT_BFLOAT16
              type: DT_UINT16
              type: DT_HALF
              type: DT_UINT32
              type: DT_UINT64
            }
          }
        }
      }
      op {
        name: "Select"
        input_arg {
          name: "condition"
          type: DT_BOOL
        }
        input_arg {
          name: "t"
          type_attr: "T"
        }
        input_arg {
          name: "e"
          type_attr: "T"
        }
        output_arg {
          name: "output"
          type_attr: "T"
        }
        attr {
          name: "T"
          type: "type"
        }
      }
      op {
        name: "Shape"
        input_arg {
          name: "input"
          type_attr: "T"
        }
        output_arg {
          name: "output"
          type_attr: "out_type"
        }
        attr {
          name: "T"
          type: "type"
        }
        attr {
          name: "out_type"
          type: "type"
          default_value {
            type: DT_INT32
          }
          allowed_values {
            list {
              type: DT_INT32
              type: DT_INT64
            }
          }
        }
      }
      op {
        name: "ShardedFilename"
        input_arg {
          name: "basename"
          type: DT_STRING
        }
        input_arg {
          name: "shard"
          type: DT_INT32
        }
        input_arg {
          name: "num_shards"
          type: DT_INT32
        }
        output_arg {
          name: "filename"
          type: DT_STRING
        }
      }
      op {
        name: "Size"
        input_arg {
          name: "input"
          type_attr: "T"
        }
        output_arg {
          name: "output"
          type_attr: "out_type"
        }
        attr {
          name: "T"
          type: "type"
        }
        attr {
          name: "out_type"
          type: "type"
          default_value {
            type: DT_INT32
          }
          allowed_values {
            list {
              type: DT_INT32
              type: DT_INT64
            }
          }
        }
      }
      op {
        name: "Softmax"
        input_arg {
          name: "logits"
          type_attr: "T"
        }
        output_arg {
          name: "softmax"
          type_attr: "T"
        }
        attr {
          name: "T"
          type: "type"
          allowed_values {
            list {
              type: DT_HALF
              type: DT_BFLOAT16
              type: DT_FLOAT
              type: DT_DOUBLE
            }
          }
        }
      }
      op {
        name: "StatelessIf"
        input_arg {
          name: "cond"
          type_attr: "Tcond"
        }
        input_arg {
          name: "input"
          type_list_attr: "Tin"
        }
        output_arg {
          name: "output"
          type_list_attr: "Tout"
        }
        attr {
          name: "Tcond"
          type: "type"
        }
        attr {
          name: "Tin"
          type: "list(type)"
          has_minimum: true
        }
        attr {
          name: "Tout"
          type: "list(type)"
          has_minimum: true
        }
        attr {
          name: "then_branch"
          type: "func"
        }
        attr {
          name: "else_branch"
          type: "func"
        }
        attr {
          name: "output_shapes"
          type: "list(shape)"
          default_value {
            list {
            }
          }
        }
      }
      op {
        name: "StaticRegexFullMatch"
        input_arg {
          name: "input"
          type: DT_STRING
        }
        output_arg {
          name: "output"
          type: DT_BOOL
        }
        attr {
          name: "pattern"
          type: "string"
        }
      }
      op {
        name: "StridedSlice"
        input_arg {
          name: "input"
          type_attr: "T"
        }
        input_arg {
          name: "begin"
          type_attr: "Index"
        }
        input_arg {
          name: "end"
          type_attr: "Index"
        }
        input_arg {
          name: "strides"
          type_attr: "Index"
        }
        output_arg {
          name: "output"
          type_attr: "T"
        }
        attr {
          name: "T"
          type: "type"
        }
        attr {
          name: "Index"
          type: "type"
          allowed_values {
            list {
              type: DT_INT32
              type: DT_INT64
            }
          }
        }
        attr {
          name: "begin_mask"
          type: "int"
          default_value {
            i: 0
          }
        }
        attr {
          name: "end_mask"
          type: "int"
          default_value {
            i: 0
          }
        }
        attr {
          name: "ellipsis_mask"
          type: "int"
          default_value {
            i: 0
          }
        }
        attr {
          name: "new_axis_mask"
          type: "int"
          default_value {
            i: 0
          }
        }
        attr {
          name: "shrink_axis_mask"
          type: "int"
          default_value {
            i: 0
          }
        }
      }
      op {
        name: "StringJoin"
        input_arg {
          name: "inputs"
          type: DT_STRING
          number_attr: "N"
        }
        output_arg {
          name: "output"
          type: DT_STRING
        }
        attr {
          name: "N"
          type: "int"
          has_minimum: true
          minimum: 1
        }
        attr {
          name: "separator"
          type: "string"
          default_value {
            s: ""
          }
        }
      }
      op {
        name: "Sub"
        input_arg {
          name: "x"
          type_attr: "T"
        }
        input_arg {
          name: "y"
          type_attr: "T"
        }
        output_arg {
          name: "z"
          type_attr: "T"
        }
        attr {
          name: "T"
          type: "type"
          allowed_values {
            list {
              type: DT_BFLOAT16
              type: DT_HALF
              type: DT_FLOAT
              type: DT_DOUBLE
              type: DT_UINT8
              type: DT_INT8
              type: DT_UINT16
              type: DT_INT16
              type: DT_INT32
              type: DT_INT64
              type: DT_COMPLEX64
              type: DT_COMPLEX128
              type: DT_UINT32
              type: DT_UINT64
            }
          }
        }
      }
      op {
        name: "Tile"
        input_arg {
          name: "input"
          type_attr: "T"
        }
        input_arg {
          name: "multiples"
          type_attr: "Tmultiples"
        }
        output_arg {
          name: "output"
          type_attr: "T"
        }
        attr {
          name: "T"
          type: "type"
        }
        attr {
          name: "Tmultiples"
          type: "type"
          default_value {
            type: DT_INT32
          }
          allowed_values {
            list {
              type: DT_INT32
              type: DT_INT64
            }
          }
        }
      }
      op {
        name: "VarHandleOp"
        output_arg {
          name: "resource"
          type: DT_RESOURCE
        }
        attr {
          name: "container"
          type: "string"
          default_value {
            s: ""
          }
        }
        attr {
          name: "shared_name"
          type: "string"
          default_value {
            s: ""
          }
        }
        attr {
          name: "dtype"
          type: "type"
        }
        attr {
          name: "shape"
          type: "shape"
        }
        attr {
          name: "allowed_devices"
          type: "list(string)"
          default_value {
            list {
            }
          }
        }
        is_stateful: true
      }
      op {
        name: "VarIsInitializedOp"
        input_arg {
          name: "resource"
          type: DT_RESOURCE
        }
        output_arg {
          name: "is_initialized"
          type: DT_BOOL
        }
        is_stateful: true
      }
    }
    tags: "serve"
    tensorflow_version: "2.6.0"
    tensorflow_git_version: "v2.6.0-rc2-32-g919f693420e"
    stripped_default_attrs: true
  }
  graph_def {
    node {
      name: "global_step/Initializer/zeros"
      op: "Const"
      attr {
        key: "_class"
        value {
          list {
            s: "loc:@global_step"
          }
        }
      }
      attr {
        key: "_output_shapes"
        value {
          list {
            shape {
            }
          }
        }
      }
      attr {
        key: "dtype"
        value {
          type: DT_INT64
        }
      }
      attr {
        key: "value"
        value {
          tensor {
            dtype: DT_INT64
            tensor_shape {
            }
            int64_val: 0
          }
        }
      }
    }
    node {
      name: "global_step"
      op: "VarHandleOp"
      attr {
        key: "_class"
        value {
          list {
            s: "loc:@global_step"
          }
        }
      }
      attr {
        key: "_output_shapes"
        value {
          list {
            shape {
            }
          }
        }
      }
      attr {
        key: "dtype"
        value {
          type: DT_INT64
        }
      }
      attr {
        key: "shape"
        value {
          shape {
          }
        }
      }
      attr {
        key: "shared_name"
        value {
          s: "global_step"
        }
      }
    }
    node {
      name: "global_step/IsInitialized/VarIsInitializedOp"
      op: "VarIsInitializedOp"
      input: "global_step"
      attr {
        key: "_output_shapes"
        value {
          list {
            shape {
            }
          }
        }
      }
    }
    node {
      name: "global_step/Assign"
      op: "AssignVariableOp"
      input: "global_step"
      input: "global_step/Initializer/zeros"
      attr {
        key: "dtype"
        value {
          type: DT_INT64
        }
      }
    }
    node {
      name: "global_step/Read/ReadVariableOp"
      op: "ReadVariableOp"
      input: "global_step"
      attr {
        key: "_output_shapes"
        value {
          list {
            shape {
            }
          }
        }
      }
      attr {
        key: "dtype"
        value {
          type: DT_INT64
        }
      }
    }
    node {
      name: "input_example_tensor"
      op: "Placeholder"
      attr {
        key: "_output_shapes"
        value {
          list {
            shape {
              dim {
                size: -1
              }
            }
          }
        }
      }
      attr {
        key: "dtype"
        value {
          type: DT_STRING
        }
      }
      attr {
        key: "shape"
        value {
          shape {
            dim {
              size: -1
            }
          }
        }
      }
    }
    node {
      name: "ParseExample/Const"
      op: "Const"
      attr {
        key: "_output_shapes"
        value {
          list {
            shape {
              dim {
              }
            }
          }
        }
      }
      attr {
        key: "dtype"
        value {
          type: DT_FLOAT
        }
      }
      attr {
        key: "value"
        value {
          tensor {
            dtype: DT_FLOAT
            tensor_shape {
              dim {
              }
            }
          }
        }
      }
    }
    node {
      name: "ParseExample/Const_1"
      op: "Const"
      attr {
        key: "_output_shapes"
        value {
          list {
            shape {
              dim {
              }
            }
          }
        }
      }
      attr {
        key: "dtype"
        value {
          type: DT_FLOAT
        }
      }
      attr {
        key: "value"
        value {
          tensor {
            dtype: DT_FLOAT
            tensor_shape {
              dim {
              }
            }
          }
        }
      }
    }
    node {
      name: "ParseExample/Const_2"
      op: "Const"
      attr {
        key: "_output_shapes"
        value {
          list {
            shape {
              dim {
              }
            }
          }
        }
      }
      attr {
        key: "dtype"
        value {
          type: DT_FLOAT
        }
      }
      attr {
        key: "value"
        value {
          tensor {
            dtype: DT_FLOAT
            tensor_shape {
              dim {
              }
            }
          }
        }
      }
    }
    node {
      name: "ParseExample/Const_3"
      op: "Const"
      attr {
        key: "_output_shapes"
        value {
          list {
            shape {
              dim {
              }
            }
          }
        }
      }
      attr {
        key: "dtype"
        value {
          type: DT_FLOAT
        }
      }
      attr {
        key: "value"
        value {
          tensor {
            dtype: DT_FLOAT
            tensor_shape {
              dim {
              }
            }
          }
        }
      }
    }
    node {
      name: "ParseExample/Const_4"
      op: "Const"
      attr {
        key: "_output_shapes"
        value {
          list {
            shape {
              dim {
              }
            }
          }
        }
      }
      attr {
        key: "dtype"
        value {
          type: DT_FLOAT
        }
      }
      attr {
        key: "value"
        value {
          tensor {
            dtype: DT_FLOAT
            tensor_shape {
              dim {
              }
            }
          }
        }
      }
    }
    node {
      name: "ParseExample/Const_5"
      op: "Const"
      attr {
        key: "_output_shapes"
        value {
          list {
            shape {
              dim {
              }
            }
          }
        }
      }
      attr {
        key: "dtype"
        value {
          type: DT_FLOAT
        }
      }
      attr {
        key: "value"
        value {
          tensor {
            dtype: DT_FLOAT
            tensor_shape {
              dim {
              }
            }
          }
        }
      }
    }
    node {
      name: "ParseExample/Const_6"
      op: "Const"
      attr {
        key: "_output_shapes"
        value {
          list {
            shape {
              dim {
              }
            }
          }
        }
      }
      attr {
        key: "dtype"
        value {
          type: DT_FLOAT
        }
      }
      attr {
        key: "value"
        value {
          tensor {
            dtype: DT_FLOAT
            tensor_shape {
              dim {
              }
            }
          }
        }
      }
    }
    node {
      name: "ParseExample/Const_7"
      op: "Const"
      attr {
        key: "_output_shapes"
        value {
          list {
            shape {
              dim {
              }
            }
          }
        }
      }
      attr {
        key: "dtype"
        value {
          type: DT_FLOAT
        }
      }
      attr {
        key: "value"
        value {
          tensor {
            dtype: DT_FLOAT
            tensor_shape {
              dim {
              }
            }
          }
        }
      }
    }
    node {
      name: "ParseExample/Const_8"
      op: "Const"
      attr {
        key: "_output_shapes"
        value {
          list {
            shape {
              dim {
              }
            }
          }
        }
      }
      attr {
        key: "dtype"
        value {
          type: DT_FLOAT
        }
      }
      attr {
        key: "value"
        value {
          tensor {
            dtype: DT_FLOAT
            tensor_shape {
              dim {
              }
            }
          }
        }
      }
    }
    node {
      name: "ParseExample/Const_9"
      op: "Const"
      attr {
        key: "_output_shapes"
        value {
          list {
            shape {
              dim {
              }
            }
          }
        }
      }
      attr {
        key: "dtype"
        value {
          type: DT_FLOAT
        }
      }
      attr {
        key: "value"
        value {
          tensor {
            dtype: DT_FLOAT
            tensor_shape {
              dim {
              }
            }
          }
        }
      }
    }
    node {
      name: "ParseExample/Const_10"
      op: "Const"
      attr {
        key: "_output_shapes"
        value {
          list {
            shape {
              dim {
              }
            }
          }
        }
      }
      attr {
        key: "dtype"
        value {
          type: DT_FLOAT
        }
      }
      attr {
        key: "value"
        value {
          tensor {
            dtype: DT_FLOAT
            tensor_shape {
              dim {
              }
            }
          }
        }
      }
    }
    node {
      name: "ParseExample/Const_11"
      op: "Const"
      attr {
        key: "_output_shapes"
        value {
          list {
            shape {
              dim {
              }
            }
          }
        }
      }
      attr {
        key: "dtype"
        value {
          type: DT_FLOAT
        }
      }
      attr {
        key: "value"
        value {
          tensor {
            dtype: DT_FLOAT
            tensor_shape {
              dim {
              }
            }
          }
        }
      }
    }
    node {
      name: "ParseExample/Const_12"
      op: "Const"
      attr {
        key: "_output_shapes"
        value {
          list {
            shape {
              dim {
              }
            }
          }
        }
      }
      attr {
        key: "dtype"
        value {
          type: DT_FLOAT
        }
      }
      attr {
        key: "value"
        value {
          tensor {
            dtype: DT_FLOAT
            tensor_shape {
              dim {
              }
            }
          }
        }
      }
    }
    node {
      name: "ParseExample/Const_13"
      op: "Const"
      attr {
        key: "_output_shapes"
        value {
          list {
            shape {
              dim {
              }
            }
          }
        }
      }
      attr {
        key: "dtype"
        value {
          type: DT_FLOAT
        }
      }
      attr {
        key: "value"
        value {
          tensor {
            dtype: DT_FLOAT
            tensor_shape {
              dim {
              }
            }
          }
        }
      }
    }
    node {
      name: "ParseExample/Const_14"
      op: "Const"
      attr {
        key: "_output_shapes"
        value {
          list {
            shape {
              dim {
              }
            }
          }
        }
      }
      attr {
        key: "dtype"
        value {
          type: DT_FLOAT
        }
      }
      attr {
        key: "value"
        value {
          tensor {
            dtype: DT_FLOAT
            tensor_shape {
              dim {
              }
            }
          }
        }
      }
    }
    node {
      name: "ParseExample/Const_15"
      op: "Const"
      attr {
        key: "_output_shapes"
        value {
          list {
            shape {
              dim {
              }
            }
          }
        }
      }
      attr {
        key: "dtype"
        value {
          type: DT_FLOAT
        }
      }
      attr {
        key: "value"
        value {
          tensor {
            dtype: DT_FLOAT
            tensor_shape {
              dim {
              }
            }
          }
        }
      }
    }
    node {
      name: "ParseExample/Const_16"
      op: "Const"
      attr {
        key: "_output_shapes"
        value {
          list {
            shape {
              dim {
              }
            }
          }
        }
      }
      attr {
        key: "dtype"
        value {
          type: DT_FLOAT
        }
      }
      attr {
        key: "value"
        value {
          tensor {
            dtype: DT_FLOAT
            tensor_shape {
              dim {
              }
            }
          }
        }
      }
    }
    node {
      name: "ParseExample/Const_17"
      op: "Const"
      attr {
        key: "_output_shapes"
        value {
          list {
            shape {
              dim {
              }
            }
          }
        }
      }
      attr {
        key: "dtype"
        value {
          type: DT_FLOAT
        }
      }
      attr {
        key: "value"
        value {
          tensor {
            dtype: DT_FLOAT
            tensor_shape {
              dim {
              }
            }
          }
        }
      }
    }
    node {
      name: "ParseExample/Const_18"
      op: "Const"
      attr {
        key: "_output_shapes"
        value {
          list {
            shape {
              dim {
              }
            }
          }
        }
      }
      attr {
        key: "dtype"
        value {
          type: DT_FLOAT
        }
      }
      attr {
        key: "value"
        value {
          tensor {
            dtype: DT_FLOAT
            tensor_shape {
              dim {
              }
            }
          }
        }
      }
    }
    node {
      name: "ParseExample/Const_19"
      op: "Const"
      attr {
        key: "_output_shapes"
        value {
          list {
            shape {
              dim {
              }
            }
          }
        }
      }
      attr {
        key: "dtype"
        value {
          type: DT_FLOAT
        }
      }
      attr {
        key: "value"
        value {
          tensor {
            dtype: DT_FLOAT
            tensor_shape {
              dim {
              }
            }
          }
        }
      }
    }
    node {
      name: "ParseExample/Const_20"
      op: "Const"
      attr {
        key: "_output_shapes"
        value {
          list {
            shape {
              dim {
              }
            }
          }
        }
      }
      attr {
        key: "dtype"
        value {
          type: DT_FLOAT
        }
      }
      attr {
        key: "value"
        value {
          tensor {
            dtype: DT_FLOAT
            tensor_shape {
              dim {
              }
            }
          }
        }
      }
    }
    node {
      name: "ParseExample/Const_21"
      op: "Const"
      attr {
        key: "_output_shapes"
        value {
          list {
            shape {
              dim {
              }
            }
          }
        }
      }
      attr {
        key: "dtype"
        value {
          type: DT_FLOAT
        }
      }
      attr {
        key: "value"
        value {
          tensor {
            dtype: DT_FLOAT
            tensor_shape {
              dim {
              }
            }
          }
        }
      }
    }
    node {
      name: "ParseExample/Const_22"
      op: "Const"
      attr {
        key: "_output_shapes"
        value {
          list {
            shape {
              dim {
              }
            }
          }
        }
      }
      attr {
        key: "dtype"
        value {
          type: DT_FLOAT
        }
      }
      attr {
        key: "value"
        value {
          tensor {
            dtype: DT_FLOAT
            tensor_shape {
              dim {
              }
            }
          }
        }
      }
    }
    node {
      name: "ParseExample/Const_23"
      op: "Const"
      attr {
        key: "_output_shapes"
        value {
          list {
            shape {
              dim {
              }
            }
          }
        }
      }
      attr {
        key: "dtype"
        value {
          type: DT_FLOAT
        }
      }
      attr {
        key: "value"
        value {
          tensor {
            dtype: DT_FLOAT
            tensor_shape {
              dim {
              }
            }
          }
        }
      }
    }
    node {
      name: "ParseExample/Const_24"
      op: "Const"
      attr {
        key: "_output_shapes"
        value {
          list {
            shape {
              dim {
              }
            }
          }
        }
      }
      attr {
        key: "dtype"
        value {
          type: DT_FLOAT
        }
      }
      attr {
        key: "value"
        value {
          tensor {
            dtype: DT_FLOAT
            tensor_shape {
              dim {
              }
            }
          }
        }
      }
    }
    node {
      name: "ParseExample/Const_25"
      op: "Const"
      attr {
        key: "_output_shapes"
        value {
          list {
            shape {
              dim {
              }
            }
          }
        }
      }
      attr {
        key: "dtype"
        value {
          type: DT_FLOAT
        }
      }
      attr {
        key: "value"
        value {
          tensor {
            dtype: DT_FLOAT
            tensor_shape {
              dim {
              }
            }
          }
        }
      }
    }
    node {
      name: "ParseExample/Const_26"
      op: "Const"
      attr {
        key: "_output_shapes"
        value {
          list {
            shape {
              dim {
              }
            }
          }
        }
      }
      attr {
        key: "dtype"
        value {
          type: DT_FLOAT
        }
      }
      attr {
        key: "value"
        value {
          tensor {
            dtype: DT_FLOAT
            tensor_shape {
              dim {
              }
            }
          }
        }
      }
    }
    node {
      name: "ParseExample/Const_27"
      op: "Const"
      attr {
        key: "_output_shapes"
        value {
          list {
            shape {
              dim {
              }
            }
          }
        }
      }
      attr {
        key: "dtype"
        value {
          type: DT_FLOAT
        }
      }
      attr {
        key: "value"
        value {
          tensor {
            dtype: DT_FLOAT
            tensor_shape {
              dim {
              }
            }
          }
        }
      }
    }
    node {
      name: "ParseExample/Const_28"
      op: "Const"
      attr {
        key: "_output_shapes"
        value {
          list {
            shape {
              dim {
              }
            }
          }
        }
      }
      attr {
        key: "dtype"
        value {
          type: DT_FLOAT
        }
      }
      attr {
        key: "value"
        value {
          tensor {
            dtype: DT_FLOAT
            tensor_shape {
              dim {
              }
            }
          }
        }
      }
    }
    node {
      name: "ParseExample/Const_29"
      op: "Const"
      attr {
        key: "_output_shapes"
        value {
          list {
            shape {
              dim {
              }
            }
          }
        }
      }
      attr {
        key: "dtype"
        value {
          type: DT_FLOAT
        }
      }
      attr {
        key: "value"
        value {
          tensor {
            dtype: DT_FLOAT
            tensor_shape {
              dim {
              }
            }
          }
        }
      }
    }
    node {
      name: "ParseExample/Const_30"
      op: "Const"
      attr {
        key: "_output_shapes"
        value {
          list {
            shape {
              dim {
              }
            }
          }
        }
      }
      attr {
        key: "dtype"
        value {
          type: DT_FLOAT
        }
      }
      attr {
        key: "value"
        value {
          tensor {
            dtype: DT_FLOAT
            tensor_shape {
              dim {
              }
            }
          }
        }
      }
    }
    node {
      name: "ParseExample/Const_31"
      op: "Const"
      attr {
        key: "_output_shapes"
        value {
          list {
            shape {
              dim {
              }
            }
          }
        }
      }
      attr {
        key: "dtype"
        value {
          type: DT_FLOAT
        }
      }
      attr {
        key: "value"
        value {
          tensor {
            dtype: DT_FLOAT
            tensor_shape {
              dim {
              }
            }
          }
        }
      }
    }
    node {
      name: "ParseExample/Const_32"
      op: "Const"
      attr {
        key: "_output_shapes"
        value {
          list {
            shape {
              dim {
              }
            }
          }
        }
      }
      attr {
        key: "dtype"
        value {
          type: DT_FLOAT
        }
      }
      attr {
        key: "value"
        value {
          tensor {
            dtype: DT_FLOAT
            tensor_shape {
              dim {
              }
            }
          }
        }
      }
    }
    node {
      name: "ParseExample/Const_33"
      op: "Const"
      attr {
        key: "_output_shapes"
        value {
          list {
            shape {
              dim {
              }
            }
          }
        }
      }
      attr {
        key: "dtype"
        value {
          type: DT_FLOAT
        }
      }
      attr {
        key: "value"
        value {
          tensor {
            dtype: DT_FLOAT
            tensor_shape {
              dim {
              }
            }
          }
        }
      }
    }
    node {
      name: "ParseExample/Const_34"
      op: "Const"
      attr {
        key: "_output_shapes"
        value {
          list {
            shape {
              dim {
              }
            }
          }
        }
      }
      attr {
        key: "dtype"
        value {
          type: DT_FLOAT
        }
      }
      attr {
        key: "value"
        value {
          tensor {
            dtype: DT_FLOAT
            tensor_shape {
              dim {
              }
            }
          }
        }
      }
    }
    node {
      name: "ParseExample/Const_35"
      op: "Const"
      attr {
        key: "_output_shapes"
        value {
          list {
            shape {
              dim {
              }
            }
          }
        }
      }
      attr {
        key: "dtype"
        value {
          type: DT_FLOAT
        }
      }
      attr {
        key: "value"
        value {
          tensor {
            dtype: DT_FLOAT
            tensor_shape {
              dim {
              }
            }
          }
        }
      }
    }
    node {
      name: "ParseExample/Const_36"
      op: "Const"
      attr {
        key: "_output_shapes"
        value {
          list {
            shape {
              dim {
              }
            }
          }
        }
      }
      attr {
        key: "dtype"
        value {
          type: DT_FLOAT
        }
      }
      attr {
        key: "value"
        value {
          tensor {
            dtype: DT_FLOAT
            tensor_shape {
              dim {
              }
            }
          }
        }
      }
    }
    node {
      name: "ParseExample/Const_37"
      op: "Const"
      attr {
        key: "_output_shapes"
        value {
          list {
            shape {
              dim {
              }
            }
          }
        }
      }
      attr {
        key: "dtype"
        value {
          type: DT_FLOAT
        }
      }
      attr {
        key: "value"
        value {
          tensor {
            dtype: DT_FLOAT
            tensor_shape {
              dim {
              }
            }
          }
        }
      }
    }
    node {
      name: "ParseExample/Const_38"
      op: "Const"
      attr {
        key: "_output_shapes"
        value {
          list {
            shape {
              dim {
              }
            }
          }
        }
      }
      attr {
        key: "dtype"
        value {
          type: DT_FLOAT
        }
      }
      attr {
        key: "value"
        value {
          tensor {
            dtype: DT_FLOAT
            tensor_shape {
              dim {
              }
            }
          }
        }
      }
    }
    node {
      name: "ParseExample/Const_39"
      op: "Const"
      attr {
        key: "_output_shapes"
        value {
          list {
            shape {
              dim {
              }
            }
          }
        }
      }
      attr {
        key: "dtype"
        value {
          type: DT_FLOAT
        }
      }
      attr {
        key: "value"
        value {
          tensor {
            dtype: DT_FLOAT
            tensor_shape {
              dim {
              }
            }
          }
        }
      }
    }
    node {
      name: "ParseExample/Const_40"
      op: "Const"
      attr {
        key: "_output_shapes"
        value {
          list {
            shape {
              dim {
              }
            }
          }
        }
      }
      attr {
        key: "dtype"
        value {
          type: DT_FLOAT
        }
      }
      attr {
        key: "value"
        value {
          tensor {
            dtype: DT_FLOAT
            tensor_shape {
              dim {
              }
            }
          }
        }
      }
    }
    node {
      name: "ParseExample/Const_41"
      op: "Const"
      attr {
        key: "_output_shapes"
        value {
          list {
            shape {
              dim {
              }
            }
          }
        }
      }
      attr {
        key: "dtype"
        value {
          type: DT_FLOAT
        }
      }
      attr {
        key: "value"
        value {
          tensor {
            dtype: DT_FLOAT
            tensor_shape {
              dim {
              }
            }
          }
        }
      }
    }
    node {
      name: "ParseExample/ParseExampleV2/names"
      op: "Const"
      attr {
        key: "_output_shapes"
        value {
          list {
            shape {
              dim {
              }
            }
          }
        }
      }
      attr {
        key: "dtype"
        value {
          type: DT_STRING
        }
      }
      attr {
        key: "value"
        value {
          tensor {
            dtype: DT_STRING
            tensor_shape {
              dim {
              }
            }
          }
        }
      }
    }
    node {
      name: "ParseExample/ParseExampleV2/sparse_keys"
      op: "Const"
      attr {
        key: "_output_shapes"
        value {
          list {
            shape {
              dim {
              }
            }
          }
        }
      }
      attr {
        key: "dtype"
        value {
          type: DT_STRING
        }
      }
      attr {
        key: "value"
        value {
          tensor {
            dtype: DT_STRING
            tensor_shape {
              dim {
              }
            }
          }
        }
      }
    }
    node {
      name: "ParseExample/ParseExampleV2/dense_keys"
      op: "Const"
      attr {
        key: "_output_shapes"
        value {
          list {
            shape {
              dim {
                size: 42
              }
            }
          }
        }
      }
      attr {
        key: "dtype"
        value {
          type: DT_STRING
        }
      }
      attr {
        key: "value"
        value {
          tensor {
            dtype: DT_STRING
            tensor_shape {
              dim {
                size: 42
              }
            }
            string_val: "0"
            string_val: "1"
            string_val: "10"
            string_val: "11"
            string_val: "12"
            string_val: "13"
            string_val: "14"
            string_val: "15"
            string_val: "16"
            string_val: "17"
            string_val: "18"
            string_val: "19"
            string_val: "2"
            string_val: "20"
            string_val: "21"
            string_val: "22"
            string_val: "23"
            string_val: "24"
            string_val: "25"
            string_val: "26"
            string_val: "27"
            string_val: "28"
            string_val: "29"
            string_val: "3"
            string_val: "30"
            string_val: "31"
            string_val: "32"
            string_val: "33"
            string_val: "34"
            string_val: "35"
            string_val: "36"
            string_val: "37"
            string_val: "38"
            string_val: "39"
            string_val: "4"
            string_val: "40"
            string_val: "41"
            string_val: "5"
            string_val: "6"
            string_val: "7"
            string_val: "8"
            string_val: "9"
          }
        }
      }
    }
    node {
      name: "ParseExample/ParseExampleV2/ragged_keys"
      op: "Const"
      attr {
        key: "_output_shapes"
        value {
          list {
            shape {
              dim {
              }
            }
          }
        }
      }
      attr {
        key: "dtype"
        value {
          type: DT_STRING
        }
      }
      attr {
        key: "value"
        value {
          tensor {
            dtype: DT_STRING
            tensor_shape {
              dim {
              }
            }
          }
        }
      }
    }
    node {
      name: "ParseExample/ParseExampleV2"
      op: "ParseExampleV2"
      input: "input_example_tensor"
      input: "ParseExample/ParseExampleV2/names"
      input: "ParseExample/ParseExampleV2/sparse_keys"
      input: "ParseExample/ParseExampleV2/dense_keys"
      input: "ParseExample/ParseExampleV2/ragged_keys"
      input: "ParseExample/Const"
      input: "ParseExample/Const_1"
      input: "ParseExample/Const_2"
      input: "ParseExample/Const_3"
      input: "ParseExample/Const_4"
      input: "ParseExample/Const_5"
      input: "ParseExample/Const_6"
      input: "ParseExample/Const_7"
      input: "ParseExample/Const_8"
      input: "ParseExample/Const_9"
      input: "ParseExample/Const_10"
      input: "ParseExample/Const_11"
      input: "ParseExample/Const_12"
      input: "ParseExample/Const_13"
      input: "ParseExample/Const_14"
      input: "ParseExample/Const_15"
      input: "ParseExample/Const_16"
      input: "ParseExample/Const_17"
      input: "ParseExample/Const_18"
      input: "ParseExample/Const_19"
      input: "ParseExample/Const_20"
      input: "ParseExample/Const_21"
      input: "ParseExample/Const_22"
      input: "ParseExample/Const_23"
      input: "ParseExample/Const_24"
      input: "ParseExample/Const_25"
      input: "ParseExample/Const_26"
      input: "ParseExample/Const_27"
      input: "ParseExample/Const_28"
      input: "ParseExample/Const_29"
      input: "ParseExample/Const_30"
      input: "ParseExample/Const_31"
      input: "ParseExample/Const_32"
      input: "ParseExample/Const_33"
      input: "ParseExample/Const_34"
      input: "ParseExample/Const_35"
      input: "ParseExample/Const_36"
      input: "ParseExample/Const_37"
      input: "ParseExample/Const_38"
      input: "ParseExample/Const_39"
      input: "ParseExample/Const_40"
      input: "ParseExample/Const_41"
      attr {
        key: "Tdense"
        value {
          list {
            type: DT_FLOAT
            type: DT_FLOAT
            type: DT_FLOAT
            type: DT_FLOAT
            type: DT_FLOAT
            type: DT_FLOAT
            type: DT_FLOAT
            type: DT_FLOAT
            type: DT_FLOAT
            type: DT_FLOAT
            type: DT_FLOAT
            type: DT_FLOAT
            type: DT_FLOAT
            type: DT_FLOAT
            type: DT_FLOAT
            type: DT_FLOAT
            type: DT_FLOAT
            type: DT_FLOAT
            type: DT_FLOAT
            type: DT_FLOAT
            type: DT_FLOAT
            type: DT_FLOAT
            type: DT_FLOAT
            type: DT_FLOAT
            type: DT_FLOAT
            type: DT_FLOAT
            type: DT_FLOAT
            type: DT_FLOAT
            type: DT_FLOAT
            type: DT_FLOAT
            type: DT_FLOAT
            type: DT_FLOAT
            type: DT_FLOAT
            type: DT_FLOAT
            type: DT_FLOAT
            type: DT_FLOAT
            type: DT_FLOAT
            type: DT_FLOAT
            type: DT_FLOAT
            type: DT_FLOAT
            type: DT_FLOAT
            type: DT_FLOAT
          }
        }
      }
      attr {
        key: "_output_shapes"
        value {
          list {
            shape {
              dim {
                size: -1
              }
              dim {
                size: 1
              }
            }
            shape {
              dim {
                size: -1
              }
              dim {
                size: 1
              }
            }
            shape {
              dim {
                size: -1
              }
              dim {
                size: 1
              }
            }
            shape {
              dim {
                size: -1
              }
              dim {
                size: 1
              }
            }
            shape {
              dim {
                size: -1
              }
              dim {
                size: 1
              }
            }
            shape {
              dim {
                size: -1
              }
              dim {
                size: 1
              }
            }
            shape {
              dim {
                size: -1
              }
              dim {
                size: 1
              }
            }
            shape {
              dim {
                size: -1
              }
              dim {
                size: 1
              }
            }
            shape {
              dim {
                size: -1
              }
              dim {
                size: 1
              }
            }
            shape {
              dim {
                size: -1
              }
              dim {
                size: 1
              }
            }
            shape {
              dim {
                size: -1
              }
              dim {
                size: 1
              }
            }
            shape {
              dim {
                size: -1
              }
              dim {
                size: 1
              }
            }
            shape {
              dim {
                size: -1
              }
              dim {
                size: 1
              }
            }
            shape {
              dim {
                size: -1
              }
              dim {
                size: 1
              }
            }
            shape {
              dim {
                size: -1
              }
              dim {
                size: 1
              }
            }
            shape {
              dim {
                size: -1
              }
              dim {
                size: 1
              }
            }
            shape {
              dim {
                size: -1
              }
              dim {
                size: 1
              }
            }
            shape {
              dim {
                size: -1
              }
              dim {
                size: 1
              }
            }
            shape {
              dim {
                size: -1
              }
              dim {
                size: 1
              }
            }
            shape {
              dim {
                size: -1
              }
              dim {
                size: 1
              }
            }
            shape {
              dim {
                size: -1
              }
              dim {
                size: 1
              }
            }
            shape {
              dim {
                size: -1
              }
              dim {
                size: 1
              }
            }
            shape {
              dim {
                size: -1
              }
              dim {
                size: 1
              }
            }
            shape {
              dim {
                size: -1
              }
              dim {
                size: 1
              }
            }
            shape {
              dim {
                size: -1
              }
              dim {
                size: 1
              }
            }
            shape {
              dim {
                size: -1
              }
              dim {
                size: 1
              }
            }
            shape {
              dim {
                size: -1
              }
              dim {
                size: 1
              }
            }
            shape {
              dim {
                size: -1
              }
              dim {
                size: 1
              }
            }
            shape {
              dim {
                size: -1
              }
              dim {
                size: 1
              }
            }
            shape {
              dim {
                size: -1
              }
              dim {
                size: 1
              }
            }
            shape {
              dim {
                size: -1
              }
              dim {
                size: 1
              }
            }
            shape {
              dim {
                size: -1
              }
              dim {
                size: 1
              }
            }
            shape {
              dim {
                size: -1
              }
              dim {
                size: 1
              }
            }
            shape {
              dim {
                size: -1
              }
              dim {
                size: 1
              }
            }
            shape {
              dim {
                size: -1
              }
              dim {
                size: 1
              }
            }
            shape {
              dim {
                size: -1
              }
              dim {
                size: 1
              }
            }
            shape {
              dim {
                size: -1
              }
              dim {
                size: 1
              }
            }
            shape {
              dim {
                size: -1
              }
              dim {
                size: 1
              }
            }
            shape {
              dim {
                size: -1
              }
              dim {
                size: 1
              }
            }
            shape {
              dim {
                size: -1
              }
              dim {
                size: 1
              }
            }
            shape {
              dim {
                size: -1
              }
              dim {
                size: 1
              }
            }
            shape {
              dim {
                size: -1
              }
              dim {
                size: 1
              }
            }
          }
        }
      }
      attr {
        key: "dense_shapes"
        value {
          list {
            shape {
              dim {
                size: 1
              }
            }
            shape {
              dim {
                size: 1
              }
            }
            shape {
              dim {
                size: 1
              }
            }
            shape {
              dim {
                size: 1
              }
            }
            shape {
              dim {
                size: 1
              }
            }
            shape {
              dim {
                size: 1
              }
            }
            shape {
              dim {
                size: 1
              }
            }
            shape {
              dim {
                size: 1
              }
            }
            shape {
              dim {
                size: 1
              }
            }
            shape {
              dim {
                size: 1
              }
            }
            shape {
              dim {
                size: 1
              }
            }
            shape {
              dim {
                size: 1
              }
            }
            shape {
              dim {
                size: 1
              }
            }
            shape {
              dim {
                size: 1
              }
            }
            shape {
              dim {
                size: 1
              }
            }
            shape {
              dim {
                size: 1
              }
            }
            shape {
              dim {
                size: 1
              }
            }
            shape {
              dim {
                size: 1
              }
            }
            shape {
              dim {
                size: 1
              }
            }
            shape {
              dim {
                size: 1
              }
            }
            shape {
              dim {
                size: 1
              }
            }
            shape {
              dim {
                size: 1
              }
            }
            shape {
              dim {
                size: 1
              }
            }
            shape {
              dim {
                size: 1
              }
            }
            shape {
              dim {
                size: 1
              }
            }
            shape {
              dim {
                size: 1
              }
            }
            shape {
              dim {
                size: 1
              }
            }
            shape {
              dim {
                size: 1
              }
            }
            shape {
              dim {
                size: 1
              }
            }
            shape {
              dim {
                size: 1
              }
            }
            shape {
              dim {
                size: 1
              }
            }
            shape {
              dim {
                size: 1
              }
            }
            shape {
              dim {
                size: 1
              }
            }
            shape {
              dim {
                size: 1
              }
            }
            shape {
              dim {
                size: 1
              }
            }
            shape {
              dim {
                size: 1
              }
            }
            shape {
              dim {
                size: 1
              }
            }
            shape {
              dim {
                size: 1
              }
            }
            shape {
              dim {
                size: 1
              }
            }
            shape {
              dim {
                size: 1
              }
            }
            shape {
              dim {
                size: 1
              }
            }
            shape {
              dim {
                size: 1
              }
            }
          }
        }
      }
      attr {
        key: "num_sparse"
        value {
          i: 0
        }
      }
      attr {
        key: "ragged_split_types"
        value {
          list {
          }
        }
      }
      attr {
        key: "ragged_value_types"
        value {
          list {
          }
        }
      }
      attr {
        key: "sparse_types"
        value {
          list {
          }
        }
      }
    }
    node {
      name: "dnn/input_from_feature_columns/input_layer/0_1/Shape"
      op: "Shape"
      input: "ParseExample/ParseExampleV2"
      attr {
        key: "T"
        value {
          type: DT_FLOAT
        }
      }
      attr {
        key: "_output_shapes"
        value {
          list {
            shape {
              dim {
                size: 2
              }
            }
          }
        }
      }
    }
    node {
      name: "dnn/input_from_feature_columns/input_layer/0_1/strided_slice/stack"
      op: "Const"
      attr {
        key: "_output_shapes"
        value {
          list {
            shape {
              dim {
                size: 1
              }
            }
          }
        }
      }
      attr {
        key: "dtype"
        value {
          type: DT_INT32
        }
      }
      attr {
        key: "value"
        value {
          tensor {
            dtype: DT_INT32
            tensor_shape {
              dim {
                size: 1
              }
            }
            int_val: 0
          }
        }
      }
    }
    node {
      name: "dnn/input_from_feature_columns/input_layer/0_1/strided_slice/stack_1"
      op: "Const"
      attr {
        key: "_output_shapes"
        value {
          list {
            shape {
              dim {
                size: 1
              }
            }
          }
        }
      }
      attr {
        key: "dtype"
        value {
          type: DT_INT32
        }
      }
      attr {
        key: "value"
        value {
          tensor {
            dtype: DT_INT32
            tensor_shape {
              dim {
                size: 1
              }
            }
            int_val: 1
          }
        }
      }
    }
    node {
      name: "dnn/input_from_feature_columns/input_layer/0_1/strided_slice/stack_2"
      op: "Const"
      attr {
        key: "_output_shapes"
        value {
          list {
            shape {
              dim {
                size: 1
              }
            }
          }
        }
      }
      attr {
        key: "dtype"
        value {
          type: DT_INT32
        }
      }
      attr {
        key: "value"
        value {
          tensor {
            dtype: DT_INT32
            tensor_shape {
              dim {
                size: 1
              }
            }
            int_val: 1
          }
        }
      }
    }
    node {
      name: "dnn/input_from_feature_columns/input_layer/0_1/strided_slice"
      op: "StridedSlice"
      input: "dnn/input_from_feature_columns/input_layer/0_1/Shape"
      input: "dnn/input_from_feature_columns/input_layer/0_1/strided_slice/stack"
      input: "dnn/input_from_feature_columns/input_layer/0_1/strided_slice/stack_1"
      input: "dnn/input_from_feature_columns/input_layer/0_1/strided_slice/stack_2"
      attr {
        key: "Index"
        value {
          type: DT_INT32
        }
      }
      attr {
        key: "T"
        value {
          type: DT_INT32
        }
      }
      attr {
        key: "_output_shapes"
        value {
          list {
            shape {
            }
          }
        }
      }
      attr {
        key: "shrink_axis_mask"
        value {
          i: 1
        }
      }
    }
    node {
      name: "dnn/input_from_feature_columns/input_layer/0_1/Reshape/shape/1"
      op: "Const"
      attr {
        key: "_output_shapes"
        value {
          list {
            shape {
            }
          }
        }
      }
      attr {
        key: "dtype"
        value {
          type: DT_INT32
        }
      }
      attr {
        key: "value"
        value {
          tensor {
            dtype: DT_INT32
            tensor_shape {
            }
            int_val: 1
          }
        }
      }
    }
    node {
      name: "dnn/input_from_feature_columns/input_layer/0_1/Reshape/shape"
      op: "Pack"
      input: "dnn/input_from_feature_columns/input_layer/0_1/strided_slice"
      input: "dnn/input_from_feature_columns/input_layer/0_1/Reshape/shape/1"
      attr {
        key: "N"
        value {
          i: 2
        }
      }
      attr {
        key: "T"
        value {
          type: DT_INT32
        }
      }
      attr {
        key: "_output_shapes"
        value {
          list {
            shape {
              dim {
                size: 2
              }
            }
          }
        }
      }
    }
    node {
      name: "dnn/input_from_feature_columns/input_layer/0_1/Reshape"
      op: "Reshape"
      input: "ParseExample/ParseExampleV2"
      input: "dnn/input_from_feature_columns/input_layer/0_1/Reshape/shape"
      attr {
        key: "T"
        value {
          type: DT_FLOAT
        }
      }
      attr {
        key: "_output_shapes"
        value {
          list {
            shape {
              dim {
                size: -1
              }
              dim {
                size: 1
              }
            }
          }
        }
      }
    }
    node {
      name: "dnn/input_from_feature_columns/input_layer/1_1/Shape"
      op: "Shape"
      input: "ParseExample/ParseExampleV2:1"
      attr {
        key: "T"
        value {
          type: DT_FLOAT
        }
      }
      attr {
        key: "_output_shapes"
        value {
          list {
            shape {
              dim {
                size: 2
              }
            }
          }
        }
      }
    }
    node {
      name: "dnn/input_from_feature_columns/input_layer/1_1/strided_slice/stack"
      op: "Const"
      attr {
        key: "_output_shapes"
        value {
          list {
            shape {
              dim {
                size: 1
              }
            }
          }
        }
      }
      attr {
        key: "dtype"
        value {
          type: DT_INT32
        }
      }
      attr {
        key: "value"
        value {
          tensor {
            dtype: DT_INT32
            tensor_shape {
              dim {
                size: 1
              }
            }
            int_val: 0
          }
        }
      }
    }
    node {
      name: "dnn/input_from_feature_columns/input_layer/1_1/strided_slice/stack_1"
      op: "Const"
      attr {
        key: "_output_shapes"
        value {
          list {
            shape {
              dim {
                size: 1
              }
            }
          }
        }
      }
      attr {
        key: "dtype"
        value {
          type: DT_INT32
        }
      }
      attr {
        key: "value"
        value {
          tensor {
            dtype: DT_INT32
            tensor_shape {
              dim {
                size: 1
              }
            }
            int_val: 1
          }
        }
      }
    }
    node {
      name: "dnn/input_from_feature_columns/input_layer/1_1/strided_slice/stack_2"
      op: "Const"
      attr {
        key: "_output_shapes"
        value {
          list {
            shape {
              dim {
                size: 1
              }
            }
          }
        }
      }
      attr {
        key: "dtype"
        value {
          type: DT_INT32
        }
      }
      attr {
        key: "value"
        value {
          tensor {
            dtype: DT_INT32
            tensor_shape {
              dim {
                size: 1
              }
            }
            int_val: 1
          }
        }
      }
    }
    node {
      name: "dnn/input_from_feature_columns/input_layer/1_1/strided_slice"
      op: "StridedSlice"
      input: "dnn/input_from_feature_columns/input_layer/1_1/Shape"
      input: "dnn/input_from_feature_columns/input_layer/1_1/strided_slice/stack"
      input: "dnn/input_from_feature_columns/input_layer/1_1/strided_slice/stack_1"
      input: "dnn/input_from_feature_columns/input_layer/1_1/strided_slice/stack_2"
      attr {
        key: "Index"
        value {
          type: DT_INT32
        }
      }
      attr {
        key: "T"
        value {
          type: DT_INT32
        }
      }
      attr {
        key: "_output_shapes"
        value {
          list {
            shape {
            }
          }
        }
      }
      attr {
        key: "shrink_axis_mask"
        value {
          i: 1
        }
      }
    }
    node {
      name: "dnn/input_from_feature_columns/input_layer/1_1/Reshape/shape/1"
      op: "Const"
      attr {
        key: "_output_shapes"
        value {
          list {
            shape {
            }
          }
        }
      }
      attr {
        key: "dtype"
        value {
          type: DT_INT32
        }
      }
      attr {
        key: "value"
        value {
          tensor {
            dtype: DT_INT32
            tensor_shape {
            }
            int_val: 1
          }
        }
      }
    }
    node {
      name: "dnn/input_from_feature_columns/input_layer/1_1/Reshape/shape"
      op: "Pack"
      input: "dnn/input_from_feature_columns/input_layer/1_1/strided_slice"
      input: "dnn/input_from_feature_columns/input_layer/1_1/Reshape/shape/1"
      attr {
        key: "N"
        value {
          i: 2
        }
      }
      attr {
        key: "T"
        value {
          type: DT_INT32
        }
      }
      attr {
        key: "_output_shapes"
        value {
          list {
            shape {
              dim {
                size: 2
              }
            }
          }
        }
      }
    }
    node {
      name: "dnn/input_from_feature_columns/input_layer/1_1/Reshape"
      op: "Reshape"
      input: "ParseExample/ParseExampleV2:1"
      input: "dnn/input_from_feature_columns/input_layer/1_1/Reshape/shape"
      attr {
        key: "T"
        value {
          type: DT_FLOAT
        }
      }
      attr {
        key: "_output_shapes"
        value {
          list {
            shape {
              dim {
                size: -1
              }
              dim {
                size: 1
              }
            }
          }
        }
      }
    }
    node {
      name: "dnn/input_from_feature_columns/input_layer/10_1/Shape"
      op: "Shape"
      input: "ParseExample/ParseExampleV2:2"
      attr {
        key: "T"
        value {
          type: DT_FLOAT
        }
      }
      attr {
        key: "_output_shapes"
        value {
          list {
            shape {
              dim {
                size: 2
              }
            }
          }
        }
      }
    }
    node {
      name: "dnn/input_from_feature_columns/input_layer/10_1/strided_slice/stack"
      op: "Const"
      attr {
        key: "_output_shapes"
        value {
          list {
            shape {
              dim {
                size: 1
              }
            }
          }
        }
      }
      attr {
        key: "dtype"
        value {
          type: DT_INT32
        }
      }
      attr {
        key: "value"
        value {
          tensor {
            dtype: DT_INT32
            tensor_shape {
              dim {
                size: 1
              }
            }
            int_val: 0
          }
        }
      }
    }
    node {
      name: "dnn/input_from_feature_columns/input_layer/10_1/strided_slice/stack_1"
      op: "Const"
      attr {
        key: "_output_shapes"
        value {
          list {
            shape {
              dim {
                size: 1
              }
            }
          }
        }
      }
      attr {
        key: "dtype"
        value {
          type: DT_INT32
        }
      }
      attr {
        key: "value"
        value {
          tensor {
            dtype: DT_INT32
            tensor_shape {
              dim {
                size: 1
              }
            }
            int_val: 1
          }
        }
      }
    }
    node {
      name: "dnn/input_from_feature_columns/input_layer/10_1/strided_slice/stack_2"
      op: "Const"
      attr {
        key: "_output_shapes"
        value {
          list {
            shape {
              dim {
                size: 1
              }
            }
          }
        }
      }
      attr {
        key: "dtype"
        value {
          type: DT_INT32
        }
      }
      attr {
        key: "value"
        value {
          tensor {
            dtype: DT_INT32
            tensor_shape {
              dim {
                size: 1
              }
            }
            int_val: 1
          }
        }
      }
    }
    node {
      name: "dnn/input_from_feature_columns/input_layer/10_1/strided_slice"
      op: "StridedSlice"
      input: "dnn/input_from_feature_columns/input_layer/10_1/Shape"
      input: "dnn/input_from_feature_columns/input_layer/10_1/strided_slice/stack"
      input: "dnn/input_from_feature_columns/input_layer/10_1/strided_slice/stack_1"
      input: "dnn/input_from_feature_columns/input_layer/10_1/strided_slice/stack_2"
      attr {
        key: "Index"
        value {
          type: DT_INT32
        }
      }
      attr {
        key: "T"
        value {
          type: DT_INT32
        }
      }
      attr {
        key: "_output_shapes"
        value {
          list {
            shape {
            }
          }
        }
      }
      attr {
        key: "shrink_axis_mask"
        value {
          i: 1
        }
      }
    }
    node {
      name: "dnn/input_from_feature_columns/input_layer/10_1/Reshape/shape/1"
      op: "Const"
      attr {
        key: "_output_shapes"
        value {
          list {
            shape {
            }
          }
        }
      }
      attr {
        key: "dtype"
        value {
          type: DT_INT32
        }
      }
      attr {
        key: "value"
        value {
          tensor {
            dtype: DT_INT32
            tensor_shape {
            }
            int_val: 1
          }
        }
      }
    }
    node {
      name: "dnn/input_from_feature_columns/input_layer/10_1/Reshape/shape"
      op: "Pack"
      input: "dnn/input_from_feature_columns/input_layer/10_1/strided_slice"
      input: "dnn/input_from_feature_columns/input_layer/10_1/Reshape/shape/1"
      attr {
        key: "N"
        value {
          i: 2
        }
      }
      attr {
        key: "T"
        value {
          type: DT_INT32
        }
      }
      attr {
        key: "_output_shapes"
        value {
          list {
            shape {
              dim {
                size: 2
              }
            }
          }
        }
      }
    }
    node {
      name: "dnn/input_from_feature_columns/input_layer/10_1/Reshape"
      op: "Reshape"
      input: "ParseExample/ParseExampleV2:2"
      input: "dnn/input_from_feature_columns/input_layer/10_1/Reshape/shape"
      attr {
        key: "T"
        value {
          type: DT_FLOAT
        }
      }
      attr {
        key: "_output_shapes"
        value {
          list {
            shape {
              dim {
                size: -1
              }
              dim {
                size: 1
              }
            }
          }
        }
      }
    }
    node {
      name: "dnn/input_from_feature_columns/input_layer/11_1/Shape"
      op: "Shape"
      input: "ParseExample/ParseExampleV2:3"
      attr {
        key: "T"
        value {
          type: DT_FLOAT
        }
      }
      attr {
        key: "_output_shapes"
        value {
          list {
            shape {
              dim {
                size: 2
              }
            }
          }
        }
      }
    }
    node {
      name: "dnn/input_from_feature_columns/input_layer/11_1/strided_slice/stack"
      op: "Const"
      attr {
        key: "_output_shapes"
        value {
          list {
            shape {
              dim {
                size: 1
              }
            }
          }
        }
      }
      attr {
        key: "dtype"
        value {
          type: DT_INT32
        }
      }
      attr {
        key: "value"
        value {
          tensor {
            dtype: DT_INT32
            tensor_shape {
              dim {
                size: 1
              }
            }
            int_val: 0
          }
        }
      }
    }
    node {
      name: "dnn/input_from_feature_columns/input_layer/11_1/strided_slice/stack_1"
      op: "Const"
      attr {
        key: "_output_shapes"
        value {
          list {
            shape {
              dim {
                size: 1
              }
            }
          }
        }
      }
      attr {
        key: "dtype"
        value {
          type: DT_INT32
        }
      }
      attr {
        key: "value"
        value {
          tensor {
            dtype: DT_INT32
            tensor_shape {
              dim {
                size: 1
              }
            }
            int_val: 1
          }
        }
      }
    }
    node {
      name: "dnn/input_from_feature_columns/input_layer/11_1/strided_slice/stack_2"
      op: "Const"
      attr {
        key: "_output_shapes"
        value {
          list {
            shape {
              dim {
                size: 1
              }
            }
          }
        }
      }
      attr {
        key: "dtype"
        value {
          type: DT_INT32
        }
      }
      attr {
        key: "value"
        value {
          tensor {
            dtype: DT_INT32
            tensor_shape {
              dim {
                size: 1
              }
            }
            int_val: 1
          }
        }
      }
    }
    node {
      name: "dnn/input_from_feature_columns/input_layer/11_1/strided_slice"
      op: "StridedSlice"
      input: "dnn/input_from_feature_columns/input_layer/11_1/Shape"
      input: "dnn/input_from_feature_columns/input_layer/11_1/strided_slice/stack"
      input: "dnn/input_from_feature_columns/input_layer/11_1/strided_slice/stack_1"
      input: "dnn/input_from_feature_columns/input_layer/11_1/strided_slice/stack_2"
      attr {
        key: "Index"
        value {
          type: DT_INT32
        }
      }
      attr {
        key: "T"
        value {
          type: DT_INT32
        }
      }
      attr {
        key: "_output_shapes"
        value {
          list {
            shape {
            }
          }
        }
      }
      attr {
        key: "shrink_axis_mask"
        value {
          i: 1
        }
      }
    }
    node {
      name: "dnn/input_from_feature_columns/input_layer/11_1/Reshape/shape/1"
      op: "Const"
      attr {
        key: "_output_shapes"
        value {
          list {
            shape {
            }
          }
        }
      }
      attr {
        key: "dtype"
        value {
          type: DT_INT32
        }
      }
      attr {
        key: "value"
        value {
          tensor {
            dtype: DT_INT32
            tensor_shape {
            }
            int_val: 1
          }
        }
      }
    }
    node {
      name: "dnn/input_from_feature_columns/input_layer/11_1/Reshape/shape"
      op: "Pack"
      input: "dnn/input_from_feature_columns/input_layer/11_1/strided_slice"
      input: "dnn/input_from_feature_columns/input_layer/11_1/Reshape/shape/1"
      attr {
        key: "N"
        value {
          i: 2
        }
      }
      attr {
        key: "T"
        value {
          type: DT_INT32
        }
      }
      attr {
        key: "_output_shapes"
        value {
          list {
            shape {
              dim {
                size: 2
              }
            }
          }
        }
      }
    }
    node {
      name: "dnn/input_from_feature_columns/input_layer/11_1/Reshape"
      op: "Reshape"
      input: "ParseExample/ParseExampleV2:3"
      input: "dnn/input_from_feature_columns/input_layer/11_1/Reshape/shape"
      attr {
        key: "T"
        value {
          type: DT_FLOAT
        }
      }
      attr {
        key: "_output_shapes"
        value {
          list {
            shape {
              dim {
                size: -1
              }
              dim {
                size: 1
              }
            }
          }
        }
      }
    }
    node {
      name: "dnn/input_from_feature_columns/input_layer/12_1/Shape"
      op: "Shape"
      input: "ParseExample/ParseExampleV2:4"
      attr {
        key: "T"
        value {
          type: DT_FLOAT
        }
      }
      attr {
        key: "_output_shapes"
        value {
          list {
            shape {
              dim {
                size: 2
              }
            }
          }
        }
      }
    }
    node {
      name: "dnn/input_from_feature_columns/input_layer/12_1/strided_slice/stack"
      op: "Const"
      attr {
        key: "_output_shapes"
        value {
          list {
            shape {
              dim {
                size: 1
              }
            }
          }
        }
      }
      attr {
        key: "dtype"
        value {
          type: DT_INT32
        }
      }
      attr {
        key: "value"
        value {
          tensor {
            dtype: DT_INT32
            tensor_shape {
              dim {
                size: 1
              }
            }
            int_val: 0
          }
        }
      }
    }
    node {
      name: "dnn/input_from_feature_columns/input_layer/12_1/strided_slice/stack_1"
      op: "Const"
      attr {
        key: "_output_shapes"
        value {
          list {
            shape {
              dim {
                size: 1
              }
            }
          }
        }
      }
      attr {
        key: "dtype"
        value {
          type: DT_INT32
        }
      }
      attr {
        key: "value"
        value {
          tensor {
            dtype: DT_INT32
            tensor_shape {
              dim {
                size: 1
              }
            }
            int_val: 1
          }
        }
      }
    }
    node {
      name: "dnn/input_from_feature_columns/input_layer/12_1/strided_slice/stack_2"
      op: "Const"
      attr {
        key: "_output_shapes"
        value {
          list {
            shape {
              dim {
                size: 1
              }
            }
          }
        }
      }
      attr {
        key: "dtype"
        value {
          type: DT_INT32
        }
      }
      attr {
        key: "value"
        value {
          tensor {
            dtype: DT_INT32
            tensor_shape {
              dim {
                size: 1
              }
            }
            int_val: 1
          }
        }
      }
    }
    node {
      name: "dnn/input_from_feature_columns/input_layer/12_1/strided_slice"
      op: "StridedSlice"
      input: "dnn/input_from_feature_columns/input_layer/12_1/Shape"
      input: "dnn/input_from_feature_columns/input_layer/12_1/strided_slice/stack"
      input: "dnn/input_from_feature_columns/input_layer/12_1/strided_slice/stack_1"
      input: "dnn/input_from_feature_columns/input_layer/12_1/strided_slice/stack_2"
      attr {
        key: "Index"
        value {
          type: DT_INT32
        }
      }
      attr {
        key: "T"
        value {
          type: DT_INT32
        }
      }
      attr {
        key: "_output_shapes"
        value {
          list {
            shape {
            }
          }
        }
      }
      attr {
        key: "shrink_axis_mask"
        value {
          i: 1
        }
      }
    }
    node {
      name: "dnn/input_from_feature_columns/input_layer/12_1/Reshape/shape/1"
      op: "Const"
      attr {
        key: "_output_shapes"
        value {
          list {
            shape {
            }
          }
        }
      }
      attr {
        key: "dtype"
        value {
          type: DT_INT32
        }
      }
      attr {
        key: "value"
        value {
          tensor {
            dtype: DT_INT32
            tensor_shape {
            }
            int_val: 1
          }
        }
      }
    }
    node {
      name: "dnn/input_from_feature_columns/input_layer/12_1/Reshape/shape"
      op: "Pack"
      input: "dnn/input_from_feature_columns/input_layer/12_1/strided_slice"
      input: "dnn/input_from_feature_columns/input_layer/12_1/Reshape/shape/1"
      attr {
        key: "N"
        value {
          i: 2
        }
      }
      attr {
        key: "T"
        value {
          type: DT_INT32
        }
      }
      attr {
        key: "_output_shapes"
        value {
          list {
            shape {
              dim {
                size: 2
              }
            }
          }
        }
      }
    }
    node {
      name: "dnn/input_from_feature_columns/input_layer/12_1/Reshape"
      op: "Reshape"
      input: "ParseExample/ParseExampleV2:4"
      input: "dnn/input_from_feature_columns/input_layer/12_1/Reshape/shape"
      attr {
        key: "T"
        value {
          type: DT_FLOAT
        }
      }
      attr {
        key: "_output_shapes"
        value {
          list {
            shape {
              dim {
                size: -1
              }
              dim {
                size: 1
              }
            }
          }
        }
      }
    }
    node {
      name: "dnn/input_from_feature_columns/input_layer/13_1/Shape"
      op: "Shape"
      input: "ParseExample/ParseExampleV2:5"
      attr {
        key: "T"
        value {
          type: DT_FLOAT
        }
      }
      attr {
        key: "_output_shapes"
        value {
          list {
            shape {
              dim {
                size: 2
              }
            }
          }
        }
      }
    }
    node {
      name: "dnn/input_from_feature_columns/input_layer/13_1/strided_slice/stack"
      op: "Const"
      attr {
        key: "_output_shapes"
        value {
          list {
            shape {
              dim {
                size: 1
              }
            }
          }
        }
      }
      attr {
        key: "dtype"
        value {
          type: DT_INT32
        }
      }
      attr {
        key: "value"
        value {
          tensor {
            dtype: DT_INT32
            tensor_shape {
              dim {
                size: 1
              }
            }
            int_val: 0
          }
        }
      }
    }
    node {
      name: "dnn/input_from_feature_columns/input_layer/13_1/strided_slice/stack_1"
      op: "Const"
      attr {
        key: "_output_shapes"
        value {
          list {
            shape {
              dim {
                size: 1
              }
            }
          }
        }
      }
      attr {
        key: "dtype"
        value {
          type: DT_INT32
        }
      }
      attr {
        key: "value"
        value {
          tensor {
            dtype: DT_INT32
            tensor_shape {
              dim {
                size: 1
              }
            }
            int_val: 1
          }
        }
      }
    }
    node {
      name: "dnn/input_from_feature_columns/input_layer/13_1/strided_slice/stack_2"
      op: "Const"
      attr {
        key: "_output_shapes"
        value {
          list {
            shape {
              dim {
                size: 1
              }
            }
          }
        }
      }
      attr {
        key: "dtype"
        value {
          type: DT_INT32
        }
      }
      attr {
        key: "value"
        value {
          tensor {
            dtype: DT_INT32
            tensor_shape {
              dim {
                size: 1
              }
            }
            int_val: 1
          }
        }
      }
    }
    node {
      name: "dnn/input_from_feature_columns/input_layer/13_1/strided_slice"
      op: "StridedSlice"
      input: "dnn/input_from_feature_columns/input_layer/13_1/Shape"
      input: "dnn/input_from_feature_columns/input_layer/13_1/strided_slice/stack"
      input: "dnn/input_from_feature_columns/input_layer/13_1/strided_slice/stack_1"
      input: "dnn/input_from_feature_columns/input_layer/13_1/strided_slice/stack_2"
      attr {
        key: "Index"
        value {
          type: DT_INT32
        }
      }
      attr {
        key: "T"
        value {
          type: DT_INT32
        }
      }
      attr {
        key: "_output_shapes"
        value {
          list {
            shape {
            }
          }
        }
      }
      attr {
        key: "shrink_axis_mask"
        value {
          i: 1
        }
      }
    }
    node {
      name: "dnn/input_from_feature_columns/input_layer/13_1/Reshape/shape/1"
      op: "Const"
      attr {
        key: "_output_shapes"
        value {
          list {
            shape {
            }
          }
        }
      }
      attr {
        key: "dtype"
        value {
          type: DT_INT32
        }
      }
      attr {
        key: "value"
        value {
          tensor {
            dtype: DT_INT32
            tensor_shape {
            }
            int_val: 1
          }
        }
      }
    }
    node {
      name: "dnn/input_from_feature_columns/input_layer/13_1/Reshape/shape"
      op: "Pack"
      input: "dnn/input_from_feature_columns/input_layer/13_1/strided_slice"
      input: "dnn/input_from_feature_columns/input_layer/13_1/Reshape/shape/1"
      attr {
        key: "N"
        value {
          i: 2
        }
      }
      attr {
        key: "T"
        value {
          type: DT_INT32
        }
      }
      attr {
        key: "_output_shapes"
        value {
          list {
            shape {
              dim {
                size: 2
              }
            }
          }
        }
      }
    }
    node {
      name: "dnn/input_from_feature_columns/input_layer/13_1/Reshape"
      op: "Reshape"
      input: "ParseExample/ParseExampleV2:5"
      input: "dnn/input_from_feature_columns/input_layer/13_1/Reshape/shape"
      attr {
        key: "T"
        value {
          type: DT_FLOAT
        }
      }
      attr {
        key: "_output_shapes"
        value {
          list {
            shape {
              dim {
                size: -1
              }
              dim {
                size: 1
              }
            }
          }
        }
      }
    }
    node {
      name: "dnn/input_from_feature_columns/input_layer/14_1/Shape"
      op: "Shape"
      input: "ParseExample/ParseExampleV2:6"
      attr {
        key: "T"
        value {
          type: DT_FLOAT
        }
      }
      attr {
        key: "_output_shapes"
        value {
          list {
            shape {
              dim {
                size: 2
              }
            }
          }
        }
      }
    }
    node {
      name: "dnn/input_from_feature_columns/input_layer/14_1/strided_slice/stack"
      op: "Const"
      attr {
        key: "_output_shapes"
        value {
          list {
            shape {
              dim {
                size: 1
              }
            }
          }
        }
      }
      attr {
        key: "dtype"
        value {
          type: DT_INT32
        }
      }
      attr {
        key: "value"
        value {
          tensor {
            dtype: DT_INT32
            tensor_shape {
              dim {
                size: 1
              }
            }
            int_val: 0
          }
        }
      }
    }
    node {
      name: "dnn/input_from_feature_columns/input_layer/14_1/strided_slice/stack_1"
      op: "Const"
      attr {
        key: "_output_shapes"
        value {
          list {
            shape {
              dim {
                size: 1
              }
            }
          }
        }
      }
      attr {
        key: "dtype"
        value {
          type: DT_INT32
        }
      }
      attr {
        key: "value"
        value {
          tensor {
            dtype: DT_INT32
            tensor_shape {
              dim {
                size: 1
              }
            }
            int_val: 1
          }
        }
      }
    }
    node {
      name: "dnn/input_from_feature_columns/input_layer/14_1/strided_slice/stack_2"
      op: "Const"
      attr {
        key: "_output_shapes"
        value {
          list {
            shape {
              dim {
                size: 1
              }
            }
          }
        }
      }
      attr {
        key: "dtype"
        value {
          type: DT_INT32
        }
      }
      attr {
        key: "value"
        value {
          tensor {
            dtype: DT_INT32
            tensor_shape {
              dim {
                size: 1
              }
            }
            int_val: 1
          }
        }
      }
    }
    node {
      name: "dnn/input_from_feature_columns/input_layer/14_1/strided_slice"
      op: "StridedSlice"
      input: "dnn/input_from_feature_columns/input_layer/14_1/Shape"
      input: "dnn/input_from_feature_columns/input_layer/14_1/strided_slice/stack"
      input: "dnn/input_from_feature_columns/input_layer/14_1/strided_slice/stack_1"
      input: "dnn/input_from_feature_columns/input_layer/14_1/strided_slice/stack_2"
      attr {
        key: "Index"
        value {
          type: DT_INT32
        }
      }
      attr {
        key: "T"
        value {
          type: DT_INT32
        }
      }
      attr {
        key: "_output_shapes"
        value {
          list {
            shape {
            }
          }
        }
      }
      attr {
        key: "shrink_axis_mask"
        value {
          i: 1
        }
      }
    }
    node {
      name: "dnn/input_from_feature_columns/input_layer/14_1/Reshape/shape/1"
      op: "Const"
      attr {
        key: "_output_shapes"
        value {
          list {
            shape {
            }
          }
        }
      }
      attr {
        key: "dtype"
        value {
          type: DT_INT32
        }
      }
      attr {
        key: "value"
        value {
          tensor {
            dtype: DT_INT32
            tensor_shape {
            }
            int_val: 1
          }
        }
      }
    }
    node {
      name: "dnn/input_from_feature_columns/input_layer/14_1/Reshape/shape"
      op: "Pack"
      input: "dnn/input_from_feature_columns/input_layer/14_1/strided_slice"
      input: "dnn/input_from_feature_columns/input_layer/14_1/Reshape/shape/1"
      attr {
        key: "N"
        value {
          i: 2
        }
      }
      attr {
        key: "T"
        value {
          type: DT_INT32
        }
      }
      attr {
        key: "_output_shapes"
        value {
          list {
            shape {
              dim {
                size: 2
              }
            }
          }
        }
      }
    }
    node {
      name: "dnn/input_from_feature_columns/input_layer/14_1/Reshape"
      op: "Reshape"
      input: "ParseExample/ParseExampleV2:6"
      input: "dnn/input_from_feature_columns/input_layer/14_1/Reshape/shape"
      attr {
        key: "T"
        value {
          type: DT_FLOAT
        }
      }
      attr {
        key: "_output_shapes"
        value {
          list {
            shape {
              dim {
                size: -1
              }
              dim {
                size: 1
              }
            }
          }
        }
      }
    }
    node {
      name: "dnn/input_from_feature_columns/input_layer/15_1/Shape"
      op: "Shape"
      input: "ParseExample/ParseExampleV2:7"
      attr {
        key: "T"
        value {
          type: DT_FLOAT
        }
      }
      attr {
        key: "_output_shapes"
        value {
          list {
            shape {
              dim {
                size: 2
              }
            }
          }
        }
      }
    }
    node {
      name: "dnn/input_from_feature_columns/input_layer/15_1/strided_slice/stack"
      op: "Const"
      attr {
        key: "_output_shapes"
        value {
          list {
            shape {
              dim {
                size: 1
              }
            }
          }
        }
      }
      attr {
        key: "dtype"
        value {
          type: DT_INT32
        }
      }
      attr {
        key: "value"
        value {
          tensor {
            dtype: DT_INT32
            tensor_shape {
              dim {
                size: 1
              }
            }
            int_val: 0
          }
        }
      }
    }
    node {
      name: "dnn/input_from_feature_columns/input_layer/15_1/strided_slice/stack_1"
      op: "Const"
      attr {
        key: "_output_shapes"
        value {
          list {
            shape {
              dim {
                size: 1
              }
            }
          }
        }
      }
      attr {
        key: "dtype"
        value {
          type: DT_INT32
        }
      }
      attr {
        key: "value"
        value {
          tensor {
            dtype: DT_INT32
            tensor_shape {
              dim {
                size: 1
              }
            }
            int_val: 1
          }
        }
      }
    }
    node {
      name: "dnn/input_from_feature_columns/input_layer/15_1/strided_slice/stack_2"
      op: "Const"
      attr {
        key: "_output_shapes"
        value {
          list {
            shape {
              dim {
                size: 1
              }
            }
          }
        }
      }
      attr {
        key: "dtype"
        value {
          type: DT_INT32
        }
      }
      attr {
        key: "value"
        value {
          tensor {
            dtype: DT_INT32
            tensor_shape {
              dim {
                size: 1
              }
            }
            int_val: 1
          }
        }
      }
    }
    node {
      name: "dnn/input_from_feature_columns/input_layer/15_1/strided_slice"
      op: "StridedSlice"
      input: "dnn/input_from_feature_columns/input_layer/15_1/Shape"
      input: "dnn/input_from_feature_columns/input_layer/15_1/strided_slice/stack"
      input: "dnn/input_from_feature_columns/input_layer/15_1/strided_slice/stack_1"
      input: "dnn/input_from_feature_columns/input_layer/15_1/strided_slice/stack_2"
      attr {
        key: "Index"
        value {
          type: DT_INT32
        }
      }
      attr {
        key: "T"
        value {
          type: DT_INT32
        }
      }
      attr {
        key: "_output_shapes"
        value {
          list {
            shape {
            }
          }
        }
      }
      attr {
        key: "shrink_axis_mask"
        value {
          i: 1
        }
      }
    }
    node {
      name: "dnn/input_from_feature_columns/input_layer/15_1/Reshape/shape/1"
      op: "Const"
      attr {
        key: "_output_shapes"
        value {
          list {
            shape {
            }
          }
        }
      }
      attr {
        key: "dtype"
        value {
          type: DT_INT32
        }
      }
      attr {
        key: "value"
        value {
          tensor {
            dtype: DT_INT32
            tensor_shape {
            }
            int_val: 1
          }
        }
      }
    }
    node {
      name: "dnn/input_from_feature_columns/input_layer/15_1/Reshape/shape"
      op: "Pack"
      input: "dnn/input_from_feature_columns/input_layer/15_1/strided_slice"
      input: "dnn/input_from_feature_columns/input_layer/15_1/Reshape/shape/1"
      attr {
        key: "N"
        value {
          i: 2
        }
      }
      attr {
        key: "T"
        value {
          type: DT_INT32
        }
      }
      attr {
        key: "_output_shapes"
        value {
          list {
            shape {
              dim {
                size: 2
              }
            }
          }
        }
      }
    }
    node {
      name: "dnn/input_from_feature_columns/input_layer/15_1/Reshape"
      op: "Reshape"
      input: "ParseExample/ParseExampleV2:7"
      input: "dnn/input_from_feature_columns/input_layer/15_1/Reshape/shape"
      attr {
        key: "T"
        value {
          type: DT_FLOAT
        }
      }
      attr {
        key: "_output_shapes"
        value {
          list {
            shape {
              dim {
                size: -1
              }
              dim {
                size: 1
              }
            }
          }
        }
      }
    }
    node {
      name: "dnn/input_from_feature_columns/input_layer/16_1/Shape"
      op: "Shape"
      input: "ParseExample/ParseExampleV2:8"
      attr {
        key: "T"
        value {
          type: DT_FLOAT
        }
      }
      attr {
        key: "_output_shapes"
        value {
          list {
            shape {
              dim {
                size: 2
              }
            }
          }
        }
      }
    }
    node {
      name: "dnn/input_from_feature_columns/input_layer/16_1/strided_slice/stack"
      op: "Const"
      attr {
        key: "_output_shapes"
        value {
          list {
            shape {
              dim {
                size: 1
              }
            }
          }
        }
      }
      attr {
        key: "dtype"
        value {
          type: DT_INT32
        }
      }
      attr {
        key: "value"
        value {
          tensor {
            dtype: DT_INT32
            tensor_shape {
              dim {
                size: 1
              }
            }
            int_val: 0
          }
        }
      }
    }
    node {
      name: "dnn/input_from_feature_columns/input_layer/16_1/strided_slice/stack_1"
      op: "Const"
      attr {
        key: "_output_shapes"
        value {
          list {
            shape {
              dim {
                size: 1
              }
            }
          }
        }
      }
      attr {
        key: "dtype"
        value {
          type: DT_INT32
        }
      }
      attr {
        key: "value"
        value {
          tensor {
            dtype: DT_INT32
            tensor_shape {
              dim {
                size: 1
              }
            }
            int_val: 1
          }
        }
      }
    }
    node {
      name: "dnn/input_from_feature_columns/input_layer/16_1/strided_slice/stack_2"
      op: "Const"
      attr {
        key: "_output_shapes"
        value {
          list {
            shape {
              dim {
                size: 1
              }
            }
          }
        }
      }
      attr {
        key: "dtype"
        value {
          type: DT_INT32
        }
      }
      attr {
        key: "value"
        value {
          tensor {
            dtype: DT_INT32
            tensor_shape {
              dim {
                size: 1
              }
            }
            int_val: 1
          }
        }
      }
    }
    node {
      name: "dnn/input_from_feature_columns/input_layer/16_1/strided_slice"
      op: "StridedSlice"
      input: "dnn/input_from_feature_columns/input_layer/16_1/Shape"
      input: "dnn/input_from_feature_columns/input_layer/16_1/strided_slice/stack"
      input: "dnn/input_from_feature_columns/input_layer/16_1/strided_slice/stack_1"
      input: "dnn/input_from_feature_columns/input_layer/16_1/strided_slice/stack_2"
      attr {
        key: "Index"
        value {
          type: DT_INT32
        }
      }
      attr {
        key: "T"
        value {
          type: DT_INT32
        }
      }
      attr {
        key: "_output_shapes"
        value {
          list {
            shape {
            }
          }
        }
      }
      attr {
        key: "shrink_axis_mask"
        value {
          i: 1
        }
      }
    }
    node {
      name: "dnn/input_from_feature_columns/input_layer/16_1/Reshape/shape/1"
      op: "Const"
      attr {
        key: "_output_shapes"
        value {
          list {
            shape {
            }
          }
        }
      }
      attr {
        key: "dtype"
        value {
          type: DT_INT32
        }
      }
      attr {
        key: "value"
        value {
          tensor {
            dtype: DT_INT32
            tensor_shape {
            }
            int_val: 1
          }
        }
      }
    }
    node {
      name: "dnn/input_from_feature_columns/input_layer/16_1/Reshape/shape"
      op: "Pack"
      input: "dnn/input_from_feature_columns/input_layer/16_1/strided_slice"
      input: "dnn/input_from_feature_columns/input_layer/16_1/Reshape/shape/1"
      attr {
        key: "N"
        value {
          i: 2
        }
      }
      attr {
        key: "T"
        value {
          type: DT_INT32
        }
      }
      attr {
        key: "_output_shapes"
        value {
          list {
            shape {
              dim {
                size: 2
              }
            }
          }
        }
      }
    }
    node {
      name: "dnn/input_from_feature_columns/input_layer/16_1/Reshape"
      op: "Reshape"
      input: "ParseExample/ParseExampleV2:8"
      input: "dnn/input_from_feature_columns/input_layer/16_1/Reshape/shape"
      attr {
        key: "T"
        value {
          type: DT_FLOAT
        }
      }
      attr {
        key: "_output_shapes"
        value {
          list {
            shape {
              dim {
                size: -1
              }
              dim {
                size: 1
              }
            }
          }
        }
      }
    }
    node {
      name: "dnn/input_from_feature_columns/input_layer/17_1/Shape"
      op: "Shape"
      input: "ParseExample/ParseExampleV2:9"
      attr {
        key: "T"
        value {
          type: DT_FLOAT
        }
      }
      attr {
        key: "_output_shapes"
        value {
          list {
            shape {
              dim {
                size: 2
              }
            }
          }
        }
      }
    }
    node {
      name: "dnn/input_from_feature_columns/input_layer/17_1/strided_slice/stack"
      op: "Const"
      attr {
        key: "_output_shapes"
        value {
          list {
            shape {
              dim {
                size: 1
              }
            }
          }
        }
      }
      attr {
        key: "dtype"
        value {
          type: DT_INT32
        }
      }
      attr {
        key: "value"
        value {
          tensor {
            dtype: DT_INT32
            tensor_shape {
              dim {
                size: 1
              }
            }
            int_val: 0
          }
        }
      }
    }
    node {
      name: "dnn/input_from_feature_columns/input_layer/17_1/strided_slice/stack_1"
      op: "Const"
      attr {
        key: "_output_shapes"
        value {
          list {
            shape {
              dim {
                size: 1
              }
            }
          }
        }
      }
      attr {
        key: "dtype"
        value {
          type: DT_INT32
        }
      }
      attr {
        key: "value"
        value {
          tensor {
            dtype: DT_INT32
            tensor_shape {
              dim {
                size: 1
              }
            }
            int_val: 1
          }
        }
      }
    }
    node {
      name: "dnn/input_from_feature_columns/input_layer/17_1/strided_slice/stack_2"
      op: "Const"
      attr {
        key: "_output_shapes"
        value {
          list {
            shape {
              dim {
                size: 1
              }
            }
          }
        }
      }
      attr {
        key: "dtype"
        value {
          type: DT_INT32
        }
      }
      attr {
        key: "value"
        value {
          tensor {
            dtype: DT_INT32
            tensor_shape {
              dim {
                size: 1
              }
            }
            int_val: 1
          }
        }
      }
    }
    node {
      name: "dnn/input_from_feature_columns/input_layer/17_1/strided_slice"
      op: "StridedSlice"
      input: "dnn/input_from_feature_columns/input_layer/17_1/Shape"
      input: "dnn/input_from_feature_columns/input_layer/17_1/strided_slice/stack"
      input: "dnn/input_from_feature_columns/input_layer/17_1/strided_slice/stack_1"
      input: "dnn/input_from_feature_columns/input_layer/17_1/strided_slice/stack_2"
      attr {
        key: "Index"
        value {
          type: DT_INT32
        }
      }
      attr {
        key: "T"
        value {
          type: DT_INT32
        }
      }
      attr {
        key: "_output_shapes"
        value {
          list {
            shape {
            }
          }
        }
      }
      attr {
        key: "shrink_axis_mask"
        value {
          i: 1
        }
      }
    }
    node {
      name: "dnn/input_from_feature_columns/input_layer/17_1/Reshape/shape/1"
      op: "Const"
      attr {
        key: "_output_shapes"
        value {
          list {
            shape {
            }
          }
        }
      }
      attr {
        key: "dtype"
        value {
          type: DT_INT32
        }
      }
      attr {
        key: "value"
        value {
          tensor {
            dtype: DT_INT32
            tensor_shape {
            }
            int_val: 1
          }
        }
      }
    }
    node {
      name: "dnn/input_from_feature_columns/input_layer/17_1/Reshape/shape"
      op: "Pack"
      input: "dnn/input_from_feature_columns/input_layer/17_1/strided_slice"
      input: "dnn/input_from_feature_columns/input_layer/17_1/Reshape/shape/1"
      attr {
        key: "N"
        value {
          i: 2
        }
      }
      attr {
        key: "T"
        value {
          type: DT_INT32
        }
      }
      attr {
        key: "_output_shapes"
        value {
          list {
            shape {
              dim {
                size: 2
              }
            }
          }
        }
      }
    }
    node {
      name: "dnn/input_from_feature_columns/input_layer/17_1/Reshape"
      op: "Reshape"
      input: "ParseExample/ParseExampleV2:9"
      input: "dnn/input_from_feature_columns/input_layer/17_1/Reshape/shape"
      attr {
        key: "T"
        value {
          type: DT_FLOAT
        }
      }
      attr {
        key: "_output_shapes"
        value {
          list {
            shape {
              dim {
                size: -1
              }
              dim {
                size: 1
              }
            }
          }
        }
      }
    }
    node {
      name: "dnn/input_from_feature_columns/input_layer/18_1/Shape"
      op: "Shape"
      input: "ParseExample/ParseExampleV2:10"
      attr {
        key: "T"
        value {
          type: DT_FLOAT
        }
      }
      attr {
        key: "_output_shapes"
        value {
          list {
            shape {
              dim {
                size: 2
              }
            }
          }
        }
      }
    }
    node {
      name: "dnn/input_from_feature_columns/input_layer/18_1/strided_slice/stack"
      op: "Const"
      attr {
        key: "_output_shapes"
        value {
          list {
            shape {
              dim {
                size: 1
              }
            }
          }
        }
      }
      attr {
        key: "dtype"
        value {
          type: DT_INT32
        }
      }
      attr {
        key: "value"
        value {
          tensor {
            dtype: DT_INT32
            tensor_shape {
              dim {
                size: 1
              }
            }
            int_val: 0
          }
        }
      }
    }
    node {
      name: "dnn/input_from_feature_columns/input_layer/18_1/strided_slice/stack_1"
      op: "Const"
      attr {
        key: "_output_shapes"
        value {
          list {
            shape {
              dim {
                size: 1
              }
            }
          }
        }
      }
      attr {
        key: "dtype"
        value {
          type: DT_INT32
        }
      }
      attr {
        key: "value"
        value {
          tensor {
            dtype: DT_INT32
            tensor_shape {
              dim {
                size: 1
              }
            }
            int_val: 1
          }
        }
      }
    }
    node {
      name: "dnn/input_from_feature_columns/input_layer/18_1/strided_slice/stack_2"
      op: "Const"
      attr {
        key: "_output_shapes"
        value {
          list {
            shape {
              dim {
                size: 1
              }
            }
          }
        }
      }
      attr {
        key: "dtype"
        value {
          type: DT_INT32
        }
      }
      attr {
        key: "value"
        value {
          tensor {
            dtype: DT_INT32
            tensor_shape {
              dim {
                size: 1
              }
            }
            int_val: 1
          }
        }
      }
    }
    node {
      name: "dnn/input_from_feature_columns/input_layer/18_1/strided_slice"
      op: "StridedSlice"
      input: "dnn/input_from_feature_columns/input_layer/18_1/Shape"
      input: "dnn/input_from_feature_columns/input_layer/18_1/strided_slice/stack"
      input: "dnn/input_from_feature_columns/input_layer/18_1/strided_slice/stack_1"
      input: "dnn/input_from_feature_columns/input_layer/18_1/strided_slice/stack_2"
      attr {
        key: "Index"
        value {
          type: DT_INT32
        }
      }
      attr {
        key: "T"
        value {
          type: DT_INT32
        }
      }
      attr {
        key: "_output_shapes"
        value {
          list {
            shape {
            }
          }
        }
      }
      attr {
        key: "shrink_axis_mask"
        value {
          i: 1
        }
      }
    }
    node {
      name: "dnn/input_from_feature_columns/input_layer/18_1/Reshape/shape/1"
      op: "Const"
      attr {
        key: "_output_shapes"
        value {
          list {
            shape {
            }
          }
        }
      }
      attr {
        key: "dtype"
        value {
          type: DT_INT32
        }
      }
      attr {
        key: "value"
        value {
          tensor {
            dtype: DT_INT32
            tensor_shape {
            }
            int_val: 1
          }
        }
      }
    }
    node {
      name: "dnn/input_from_feature_columns/input_layer/18_1/Reshape/shape"
      op: "Pack"
      input: "dnn/input_from_feature_columns/input_layer/18_1/strided_slice"
      input: "dnn/input_from_feature_columns/input_layer/18_1/Reshape/shape/1"
      attr {
        key: "N"
        value {
          i: 2
        }
      }
      attr {
        key: "T"
        value {
          type: DT_INT32
        }
      }
      attr {
        key: "_output_shapes"
        value {
          list {
            shape {
              dim {
                size: 2
              }
            }
          }
        }
      }
    }
    node {
      name: "dnn/input_from_feature_columns/input_layer/18_1/Reshape"
      op: "Reshape"
      input: "ParseExample/ParseExampleV2:10"
      input: "dnn/input_from_feature_columns/input_layer/18_1/Reshape/shape"
      attr {
        key: "T"
        value {
          type: DT_FLOAT
        }
      }
      attr {
        key: "_output_shapes"
        value {
          list {
            shape {
              dim {
                size: -1
              }
              dim {
                size: 1
              }
            }
          }
        }
      }
    }
    node {
      name: "dnn/input_from_feature_columns/input_layer/19_1/Shape"
      op: "Shape"
      input: "ParseExample/ParseExampleV2:11"
      attr {
        key: "T"
        value {
          type: DT_FLOAT
        }
      }
      attr {
        key: "_output_shapes"
        value {
          list {
            shape {
              dim {
                size: 2
              }
            }
          }
        }
      }
    }
    node {
      name: "dnn/input_from_feature_columns/input_layer/19_1/strided_slice/stack"
      op: "Const"
      attr {
        key: "_output_shapes"
        value {
          list {
            shape {
              dim {
                size: 1
              }
            }
          }
        }
      }
      attr {
        key: "dtype"
        value {
          type: DT_INT32
        }
      }
      attr {
        key: "value"
        value {
          tensor {
            dtype: DT_INT32
            tensor_shape {
              dim {
                size: 1
              }
            }
            int_val: 0
          }
        }
      }
    }
    node {
      name: "dnn/input_from_feature_columns/input_layer/19_1/strided_slice/stack_1"
      op: "Const"
      attr {
        key: "_output_shapes"
        value {
          list {
            shape {
              dim {
                size: 1
              }
            }
          }
        }
      }
      attr {
        key: "dtype"
        value {
          type: DT_INT32
        }
      }
      attr {
        key: "value"
        value {
          tensor {
            dtype: DT_INT32
            tensor_shape {
              dim {
                size: 1
              }
            }
            int_val: 1
          }
        }
      }
    }
    node {
      name: "dnn/input_from_feature_columns/input_layer/19_1/strided_slice/stack_2"
      op: "Const"
      attr {
        key: "_output_shapes"
        value {
          list {
            shape {
              dim {
                size: 1
              }
            }
          }
        }
      }
      attr {
        key: "dtype"
        value {
          type: DT_INT32
        }
      }
      attr {
        key: "value"
        value {
          tensor {
            dtype: DT_INT32
            tensor_shape {
              dim {
                size: 1
              }
            }
            int_val: 1
          }
        }
      }
    }
    node {
      name: "dnn/input_from_feature_columns/input_layer/19_1/strided_slice"
      op: "StridedSlice"
      input: "dnn/input_from_feature_columns/input_layer/19_1/Shape"
      input: "dnn/input_from_feature_columns/input_layer/19_1/strided_slice/stack"
      input: "dnn/input_from_feature_columns/input_layer/19_1/strided_slice/stack_1"
      input: "dnn/input_from_feature_columns/input_layer/19_1/strided_slice/stack_2"
      attr {
        key: "Index"
        value {
          type: DT_INT32
        }
      }
      attr {
        key: "T"
        value {
          type: DT_INT32
        }
      }
      attr {
        key: "_output_shapes"
        value {
          list {
            shape {
            }
          }
        }
      }
      attr {
        key: "shrink_axis_mask"
        value {
          i: 1
        }
      }
    }
    node {
      name: "dnn/input_from_feature_columns/input_layer/19_1/Reshape/shape/1"
      op: "Const"
      attr {
        key: "_output_shapes"
        value {
          list {
            shape {
            }
          }
        }
      }
      attr {
        key: "dtype"
        value {
          type: DT_INT32
        }
      }
      attr {
        key: "value"
        value {
          tensor {
            dtype: DT_INT32
            tensor_shape {
            }
            int_val: 1
          }
        }
      }
    }
    node {
      name: "dnn/input_from_feature_columns/input_layer/19_1/Reshape/shape"
      op: "Pack"
      input: "dnn/input_from_feature_columns/input_layer/19_1/strided_slice"
      input: "dnn/input_from_feature_columns/input_layer/19_1/Reshape/shape/1"
      attr {
        key: "N"
        value {
          i: 2
        }
      }
      attr {
        key: "T"
        value {
          type: DT_INT32
        }
      }
      attr {
        key: "_output_shapes"
        value {
          list {
            shape {
              dim {
                size: 2
              }
            }
          }
        }
      }
    }
    node {
      name: "dnn/input_from_feature_columns/input_layer/19_1/Reshape"
      op: "Reshape"
      input: "ParseExample/ParseExampleV2:11"
      input: "dnn/input_from_feature_columns/input_layer/19_1/Reshape/shape"
      attr {
        key: "T"
        value {
          type: DT_FLOAT
        }
      }
      attr {
        key: "_output_shapes"
        value {
          list {
            shape {
              dim {
                size: -1
              }
              dim {
                size: 1
              }
            }
          }
        }
      }
    }
    node {
      name: "dnn/input_from_feature_columns/input_layer/2_1/Shape"
      op: "Shape"
      input: "ParseExample/ParseExampleV2:12"
      attr {
        key: "T"
        value {
          type: DT_FLOAT
        }
      }
      attr {
        key: "_output_shapes"
        value {
          list {
            shape {
              dim {
                size: 2
              }
            }
          }
        }
      }
    }
    node {
      name: "dnn/input_from_feature_columns/input_layer/2_1/strided_slice/stack"
      op: "Const"
      attr {
        key: "_output_shapes"
        value {
          list {
            shape {
              dim {
                size: 1
              }
            }
          }
        }
      }
      attr {
        key: "dtype"
        value {
          type: DT_INT32
        }
      }
      attr {
        key: "value"
        value {
          tensor {
            dtype: DT_INT32
            tensor_shape {
              dim {
                size: 1
              }
            }
            int_val: 0
          }
        }
      }
    }
    node {
      name: "dnn/input_from_feature_columns/input_layer/2_1/strided_slice/stack_1"
      op: "Const"
      attr {
        key: "_output_shapes"
        value {
          list {
            shape {
              dim {
                size: 1
              }
            }
          }
        }
      }
      attr {
        key: "dtype"
        value {
          type: DT_INT32
        }
      }
      attr {
        key: "value"
        value {
          tensor {
            dtype: DT_INT32
            tensor_shape {
              dim {
                size: 1
              }
            }
            int_val: 1
          }
        }
      }
    }
    node {
      name: "dnn/input_from_feature_columns/input_layer/2_1/strided_slice/stack_2"
      op: "Const"
      attr {
        key: "_output_shapes"
        value {
          list {
            shape {
              dim {
                size: 1
              }
            }
          }
        }
      }
      attr {
        key: "dtype"
        value {
          type: DT_INT32
        }
      }
      attr {
        key: "value"
        value {
          tensor {
            dtype: DT_INT32
            tensor_shape {
              dim {
                size: 1
              }
            }
            int_val: 1
          }
        }
      }
    }
    node {
      name: "dnn/input_from_feature_columns/input_layer/2_1/strided_slice"
      op: "StridedSlice"
      input: "dnn/input_from_feature_columns/input_layer/2_1/Shape"
      input: "dnn/input_from_feature_columns/input_layer/2_1/strided_slice/stack"
      input: "dnn/input_from_feature_columns/input_layer/2_1/strided_slice/stack_1"
      input: "dnn/input_from_feature_columns/input_layer/2_1/strided_slice/stack_2"
      attr {
        key: "Index"
        value {
          type: DT_INT32
        }
      }
      attr {
        key: "T"
        value {
          type: DT_INT32
        }
      }
      attr {
        key: "_output_shapes"
        value {
          list {
            shape {
            }
          }
        }
      }
      attr {
        key: "shrink_axis_mask"
        value {
          i: 1
        }
      }
    }
    node {
      name: "dnn/input_from_feature_columns/input_layer/2_1/Reshape/shape/1"
      op: "Const"
      attr {
        key: "_output_shapes"
        value {
          list {
            shape {
            }
          }
        }
      }
      attr {
        key: "dtype"
        value {
          type: DT_INT32
        }
      }
      attr {
        key: "value"
        value {
          tensor {
            dtype: DT_INT32
            tensor_shape {
            }
            int_val: 1
          }
        }
      }
    }
    node {
      name: "dnn/input_from_feature_columns/input_layer/2_1/Reshape/shape"
      op: "Pack"
      input: "dnn/input_from_feature_columns/input_layer/2_1/strided_slice"
      input: "dnn/input_from_feature_columns/input_layer/2_1/Reshape/shape/1"
      attr {
        key: "N"
        value {
          i: 2
        }
      }
      attr {
        key: "T"
        value {
          type: DT_INT32
        }
      }
      attr {
        key: "_output_shapes"
        value {
          list {
            shape {
              dim {
                size: 2
              }
            }
          }
        }
      }
    }
    node {
      name: "dnn/input_from_feature_columns/input_layer/2_1/Reshape"
      op: "Reshape"
      input: "ParseExample/ParseExampleV2:12"
      input: "dnn/input_from_feature_columns/input_layer/2_1/Reshape/shape"
      attr {
        key: "T"
        value {
          type: DT_FLOAT
        }
      }
      attr {
        key: "_output_shapes"
        value {
          list {
            shape {
              dim {
                size: -1
              }
              dim {
                size: 1
              }
            }
          }
        }
      }
    }
    node {
      name: "dnn/input_from_feature_columns/input_layer/20_1/Shape"
      op: "Shape"
      input: "ParseExample/ParseExampleV2:13"
      attr {
        key: "T"
        value {
          type: DT_FLOAT
        }
      }
      attr {
        key: "_output_shapes"
        value {
          list {
            shape {
              dim {
                size: 2
              }
            }
          }
        }
      }
    }
    node {
      name: "dnn/input_from_feature_columns/input_layer/20_1/strided_slice/stack"
      op: "Const"
      attr {
        key: "_output_shapes"
        value {
          list {
            shape {
              dim {
                size: 1
              }
            }
          }
        }
      }
      attr {
        key: "dtype"
        value {
          type: DT_INT32
        }
      }
      attr {
        key: "value"
        value {
          tensor {
            dtype: DT_INT32
            tensor_shape {
              dim {
                size: 1
              }
            }
            int_val: 0
          }
        }
      }
    }
    node {
      name: "dnn/input_from_feature_columns/input_layer/20_1/strided_slice/stack_1"
      op: "Const"
      attr {
        key: "_output_shapes"
        value {
          list {
            shape {
              dim {
                size: 1
              }
            }
          }
        }
      }
      attr {
        key: "dtype"
        value {
          type: DT_INT32
        }
      }
      attr {
        key: "value"
        value {
          tensor {
            dtype: DT_INT32
            tensor_shape {
              dim {
                size: 1
              }
            }
            int_val: 1
          }
        }
      }
    }
    node {
      name: "dnn/input_from_feature_columns/input_layer/20_1/strided_slice/stack_2"
      op: "Const"
      attr {
        key: "_output_shapes"
        value {
          list {
            shape {
              dim {
                size: 1
              }
            }
          }
        }
      }
      attr {
        key: "dtype"
        value {
          type: DT_INT32
        }
      }
      attr {
        key: "value"
        value {
          tensor {
            dtype: DT_INT32
            tensor_shape {
              dim {
                size: 1
              }
            }
            int_val: 1
          }
        }
      }
    }
    node {
      name: "dnn/input_from_feature_columns/input_layer/20_1/strided_slice"
      op: "StridedSlice"
      input: "dnn/input_from_feature_columns/input_layer/20_1/Shape"
      input: "dnn/input_from_feature_columns/input_layer/20_1/strided_slice/stack"
      input: "dnn/input_from_feature_columns/input_layer/20_1/strided_slice/stack_1"
      input: "dnn/input_from_feature_columns/input_layer/20_1/strided_slice/stack_2"
      attr {
        key: "Index"
        value {
          type: DT_INT32
        }
      }
      attr {
        key: "T"
        value {
          type: DT_INT32
        }
      }
      attr {
        key: "_output_shapes"
        value {
          list {
            shape {
            }
          }
        }
      }
      attr {
        key: "shrink_axis_mask"
        value {
          i: 1
        }
      }
    }
    node {
      name: "dnn/input_from_feature_columns/input_layer/20_1/Reshape/shape/1"
      op: "Const"
      attr {
        key: "_output_shapes"
        value {
          list {
            shape {
            }
          }
        }
      }
      attr {
        key: "dtype"
        value {
          type: DT_INT32
        }
      }
      attr {
        key: "value"
        value {
          tensor {
            dtype: DT_INT32
            tensor_shape {
            }
            int_val: 1
          }
        }
      }
    }
    node {
      name: "dnn/input_from_feature_columns/input_layer/20_1/Reshape/shape"
      op: "Pack"
      input: "dnn/input_from_feature_columns/input_layer/20_1/strided_slice"
      input: "dnn/input_from_feature_columns/input_layer/20_1/Reshape/shape/1"
      attr {
        key: "N"
        value {
          i: 2
        }
      }
      attr {
        key: "T"
        value {
          type: DT_INT32
        }
      }
      attr {
        key: "_output_shapes"
        value {
          list {
            shape {
              dim {
                size: 2
              }
            }
          }
        }
      }
    }
    node {
      name: "dnn/input_from_feature_columns/input_layer/20_1/Reshape"
      op: "Reshape"
      input: "ParseExample/ParseExampleV2:13"
      input: "dnn/input_from_feature_columns/input_layer/20_1/Reshape/shape"
      attr {
        key: "T"
        value {
          type: DT_FLOAT
        }
      }
      attr {
        key: "_output_shapes"
        value {
          list {
            shape {
              dim {
                size: -1
              }
              dim {
                size: 1
              }
            }
          }
        }
      }
    }
    node {
      name: "dnn/input_from_feature_columns/input_layer/21_1/Shape"
      op: "Shape"
      input: "ParseExample/ParseExampleV2:14"
      attr {
        key: "T"
        value {
          type: DT_FLOAT
        }
      }
      attr {
        key: "_output_shapes"
        value {
          list {
            shape {
              dim {
                size: 2
              }
            }
          }
        }
      }
    }
    node {
      name: "dnn/input_from_feature_columns/input_layer/21_1/strided_slice/stack"
      op: "Const"
      attr {
        key: "_output_shapes"
        value {
          list {
            shape {
              dim {
                size: 1
              }
            }
          }
        }
      }
      attr {
        key: "dtype"
        value {
          type: DT_INT32
        }
      }
      attr {
        key: "value"
        value {
          tensor {
            dtype: DT_INT32
            tensor_shape {
              dim {
                size: 1
              }
            }
            int_val: 0
          }
        }
      }
    }
    node {
      name: "dnn/input_from_feature_columns/input_layer/21_1/strided_slice/stack_1"
      op: "Const"
      attr {
        key: "_output_shapes"
        value {
          list {
            shape {
              dim {
                size: 1
              }
            }
          }
        }
      }
      attr {
        key: "dtype"
        value {
          type: DT_INT32
        }
      }
      attr {
        key: "value"
        value {
          tensor {
            dtype: DT_INT32
            tensor_shape {
              dim {
                size: 1
              }
            }
            int_val: 1
          }
        }
      }
    }
    node {
      name: "dnn/input_from_feature_columns/input_layer/21_1/strided_slice/stack_2"
      op: "Const"
      attr {
        key: "_output_shapes"
        value {
          list {
            shape {
              dim {
                size: 1
              }
            }
          }
        }
      }
      attr {
        key: "dtype"
        value {
          type: DT_INT32
        }
      }
      attr {
        key: "value"
        value {
          tensor {
            dtype: DT_INT32
            tensor_shape {
              dim {
                size: 1
              }
            }
            int_val: 1
          }
        }
      }
    }
    node {
      name: "dnn/input_from_feature_columns/input_layer/21_1/strided_slice"
      op: "StridedSlice"
      input: "dnn/input_from_feature_columns/input_layer/21_1/Shape"
      input: "dnn/input_from_feature_columns/input_layer/21_1/strided_slice/stack"
      input: "dnn/input_from_feature_columns/input_layer/21_1/strided_slice/stack_1"
      input: "dnn/input_from_feature_columns/input_layer/21_1/strided_slice/stack_2"
      attr {
        key: "Index"
        value {
          type: DT_INT32
        }
      }
      attr {
        key: "T"
        value {
          type: DT_INT32
        }
      }
      attr {
        key: "_output_shapes"
        value {
          list {
            shape {
            }
          }
        }
      }
      attr {
        key: "shrink_axis_mask"
        value {
          i: 1
        }
      }
    }
    node {
      name: "dnn/input_from_feature_columns/input_layer/21_1/Reshape/shape/1"
      op: "Const"
      attr {
        key: "_output_shapes"
        value {
          list {
            shape {
            }
          }
        }
      }
      attr {
        key: "dtype"
        value {
          type: DT_INT32
        }
      }
      attr {
        key: "value"
        value {
          tensor {
            dtype: DT_INT32
            tensor_shape {
            }
            int_val: 1
          }
        }
      }
    }
    node {
      name: "dnn/input_from_feature_columns/input_layer/21_1/Reshape/shape"
      op: "Pack"
      input: "dnn/input_from_feature_columns/input_layer/21_1/strided_slice"
      input: "dnn/input_from_feature_columns/input_layer/21_1/Reshape/shape/1"
      attr {
        key: "N"
        value {
          i: 2
        }
      }
      attr {
        key: "T"
        value {
          type: DT_INT32
        }
      }
      attr {
        key: "_output_shapes"
        value {
          list {
            shape {
              dim {
                size: 2
              }
            }
          }
        }
      }
    }
    node {
      name: "dnn/input_from_feature_columns/input_layer/21_1/Reshape"
      op: "Reshape"
      input: "ParseExample/ParseExampleV2:14"
      input: "dnn/input_from_feature_columns/input_layer/21_1/Reshape/shape"
      attr {
        key: "T"
        value {
          type: DT_FLOAT
        }
      }
      attr {
        key: "_output_shapes"
        value {
          list {
            shape {
              dim {
                size: -1
              }
              dim {
                size: 1
              }
            }
          }
        }
      }
    }
    node {
      name: "dnn/input_from_feature_columns/input_layer/22_1/Shape"
      op: "Shape"
      input: "ParseExample/ParseExampleV2:15"
      attr {
        key: "T"
        value {
          type: DT_FLOAT
        }
      }
      attr {
        key: "_output_shapes"
        value {
          list {
            shape {
              dim {
                size: 2
              }
            }
          }
        }
      }
    }
    node {
      name: "dnn/input_from_feature_columns/input_layer/22_1/strided_slice/stack"
      op: "Const"
      attr {
        key: "_output_shapes"
        value {
          list {
            shape {
              dim {
                size: 1
              }
            }
          }
        }
      }
      attr {
        key: "dtype"
        value {
          type: DT_INT32
        }
      }
      attr {
        key: "value"
        value {
          tensor {
            dtype: DT_INT32
            tensor_shape {
              dim {
                size: 1
              }
            }
            int_val: 0
          }
        }
      }
    }
    node {
      name: "dnn/input_from_feature_columns/input_layer/22_1/strided_slice/stack_1"
      op: "Const"
      attr {
        key: "_output_shapes"
        value {
          list {
            shape {
              dim {
                size: 1
              }
            }
          }
        }
      }
      attr {
        key: "dtype"
        value {
          type: DT_INT32
        }
      }
      attr {
        key: "value"
        value {
          tensor {
            dtype: DT_INT32
            tensor_shape {
              dim {
                size: 1
              }
…
                shape {
                  dim {
                    size: -1
                  }
                  dim {
                    size: 10
                  }
                }
              }
            }
          }
          experimental_debug_info {
            original_node_names: "count_nonzero/Cast"
          }
        }
        node_def {
          name: "count_nonzero/Const"
          op: "Const"
          attr {
            key: "_output_shapes"
            value {
              list {
                shape {
                  dim {
                    size: 2
                  }
                }
              }
            }
          }
          attr {
            key: "dtype"
            value {
              type: DT_INT32
            }
          }
          attr {
            key: "value"
            value {
              tensor {
                dtype: DT_INT32
                tensor_shape {
                  dim {
                    size: 2
                  }
                }
                tensor_content: "\000\000\000\000\001\000\000\000"
              }
            }
          }
          experimental_debug_info {
            original_node_names: "count_nonzero/Const"
          }
        }
        node_def {
          name: "count_nonzero/nonzero_count"
          op: "Sum"
          input: "count_nonzero/Cast:y:0"
          input: "count_nonzero/Const:output:0"
          attr {
            key: "T"
            value {
              type: DT_INT64
            }
          }
          attr {
            key: "_output_shapes"
            value {
              list {
                shape {
                }
              }
            }
          }
          experimental_debug_info {
            original_node_names: "count_nonzero/nonzero_count"
          }
        }
        node_def {
          name: "OptionalFromValue"
          op: "OptionalFromValue"
          input: "count_nonzero/zeros:output:0"
          attr {
            key: "Toutput_types"
            value {
              list {
                type: DT_FLOAT
              }
            }
          }
          attr {
            key: "_output_shapes"
            value {
              list {
                shape {
                }
              }
            }
          }
          experimental_debug_info {
            original_node_names: "OptionalFromValue"
          }
        }
        node_def {
          name: "OptionalFromValue_1"
          op: "OptionalFromValue"
          input: "count_nonzero/NotEqual:z:0"
          attr {
            key: "Toutput_types"
            value {
              list {
                type: DT_BOOL
              }
            }
          }
          attr {
            key: "_output_shapes"
            value {
              list {
                shape {
                }
              }
            }
          }
          experimental_debug_info {
            original_node_names: "OptionalFromValue_1"
          }
        }
        node_def {
          name: "OptionalFromValue_2"
          op: "OptionalFromValue"
          input: "count_nonzero/Cast:y:0"
          attr {
            key: "Toutput_types"
            value {
              list {
                type: DT_INT64
              }
            }
          }
          attr {
            key: "_output_shapes"
            value {
              list {
                shape {
                }
              }
            }
          }
          experimental_debug_info {
            original_node_names: "OptionalFromValue_2"
          }
        }
        node_def {
          name: "OptionalFromValue_3"
          op: "OptionalFromValue"
          input: "count_nonzero/Const:output:0"
          attr {
            key: "Toutput_types"
            value {
              list {
                type: DT_INT32
              }
            }
          }
          attr {
            key: "_output_shapes"
            value {
              list {
                shape {
                }
              }
            }
          }
          experimental_debug_info {
            original_node_names: "OptionalFromValue_3"
          }
        }
        node_def {
          name: "OptionalNone"
          op: "OptionalNone"
          attr {
            key: "_output_shapes"
            value {
              list {
                shape {
                }
              }
            }
          }
          experimental_debug_info {
            original_node_names: "OptionalNone"
          }
        }
        ret {
          key: "count_nonzero_nonzero_count"
          value: "count_nonzero/nonzero_count:output:0"
        }
        ret {
          key: "optionalfromvalue"
          value: "OptionalFromValue:optional:0"
        }
        ret {
          key: "optionalfromvalue_1"
          value: "OptionalFromValue_1:optional:0"
        }
        ret {
          key: "optionalfromvalue_2"
          value: "OptionalFromValue_2:optional:0"
        }
        ret {
          key: "optionalfromvalue_3"
          value: "OptionalFromValue_3:optional:0"
        }
        ret {
          key: "optionalnone"
          value: "OptionalNone:optional:0"
        }
        attr {
          key: "_input_shapes"
          value {
            list {
              shape {
                dim {
                  size: -1
                }
                dim {
                  size: 10
                }
              }
            }
          }
        }
        arg_attr {
          key: 0
          value {
            attr {
              key: "_output_shapes"
              value {
                list {
                  shape {
                    dim {
                      size: -1
                    }
                    dim {
                      size: 10
                    }
                  }
                }
              }
            }
          }
        }
      }
      function {
        signature {
          name: "dnn_zero_fraction_1_cond_true_1808"
          input_arg {
            name: "count_nonzero_notequal_dnn_hiddenlayer_1_leakyrelu"
            type: DT_FLOAT
          }
          output_arg {
            name: "cast"
            type: DT_INT64
          }
          output_arg {
            name: "optionalfromvalue"
            type: DT_VARIANT
          }
          output_arg {
            name: "optionalfromvalue_1"
            type: DT_VARIANT
          }
          output_arg {
            name: "optionalfromvalue_2"
            type: DT_VARIANT
          }
          output_arg {
            name: "optionalfromvalue_3"
            type: DT_VARIANT
          }
          output_arg {
            name: "optionalfromvalue_4"
            type: DT_VARIANT
          }
        }
        node_def {
          name: "count_nonzero/zeros"
          op: "Const"
          attr {
            key: "_output_shapes"
            value {
              list {
                shape {
                }
              }
            }
          }
          attr {
            key: "dtype"
            value {
              type: DT_FLOAT
            }
          }
          attr {
            key: "value"
            value {
              tensor {
                dtype: DT_FLOAT
                tensor_shape {
                }
                float_val: 0.0
              }
            }
          }
          experimental_debug_info {
            original_node_names: "count_nonzero/zeros"
          }
        }
        node_def {
          name: "count_nonzero/NotEqual"
          op: "NotEqual"
          input: "count_nonzero_notequal_dnn_hiddenlayer_1_leakyrelu"
          input: "count_nonzero/zeros:output:0"
          attr {
            key: "T"
            value {
              type: DT_FLOAT
            }
          }
          attr {
            key: "_output_shapes"
            value {
              list {
                shape {
                  dim {
                    size: -1
                  }
                  dim {
                    size: 10
                  }
                }
              }
            }
          }
          experimental_debug_info {
            original_node_names: "count_nonzero/NotEqual"
          }
        }
        node_def {
          name: "count_nonzero/Cast"
          op: "Cast"
          input: "count_nonzero/NotEqual:z:0"
          attr {
            key: "DstT"
            value {
              type: DT_INT32
            }
          }
          attr {
            key: "SrcT"
            value {
              type: DT_BOOL
            }
          }
          attr {
            key: "_output_shapes"
            value {
              list {
                shape {
                  dim {
                    size: -1
                  }
                  dim {
                    size: 10
                  }
                }
              }
            }
          }
          experimental_debug_info {
            original_node_names: "count_nonzero/Cast"
          }
        }
        node_def {
          name: "count_nonzero/Const"
          op: "Const"
          attr {
            key: "_output_shapes"
            value {
              list {
                shape {
                  dim {
                    size: 2
                  }
                }
              }
            }
          }
          attr {
            key: "dtype"
            value {
              type: DT_INT32
            }
          }
          attr {
            key: "value"
            value {
              tensor {
                dtype: DT_INT32
                tensor_shape {
                  dim {
                    size: 2
                  }
                }
                tensor_content: "\000\000\000\000\001\000\000\000"
              }
            }
          }
          experimental_debug_info {
            original_node_names: "count_nonzero/Const"
          }
        }
        node_def {
          name: "count_nonzero/nonzero_count"
          op: "Sum"
          input: "count_nonzero/Cast:y:0"
          input: "count_nonzero/Const:output:0"
          attr {
            key: "T"
            value {
              type: DT_INT32
            }
          }
          attr {
            key: "_output_shapes"
            value {
              list {
                shape {
                }
              }
            }
          }
          experimental_debug_info {
            original_node_names: "count_nonzero/nonzero_count"
          }
        }
        node_def {
          name: "Cast"
          op: "Cast"
          input: "count_nonzero/nonzero_count:output:0"
          attr {
            key: "DstT"
            value {
              type: DT_INT64
            }
          }
          attr {
            key: "SrcT"
            value {
              type: DT_INT32
            }
          }
          attr {
            key: "_output_shapes"
            value {
              list {
                shape {
                }
              }
            }
          }
          experimental_debug_info {
            original_node_names: "Cast"
          }
        }
        node_def {
          name: "OptionalFromValue"
          op: "OptionalFromValue"
          input: "count_nonzero/zeros:output:0"
          attr {
            key: "Toutput_types"
            value {
              list {
                type: DT_FLOAT
              }
            }
          }
          attr {
            key: "_output_shapes"
            value {
              list {
                shape {
                }
              }
            }
          }
          experimental_debug_info {
            original_node_names: "OptionalFromValue"
          }
        }
        node_def {
          name: "OptionalFromValue_1"
          op: "OptionalFromValue"
          input: "count_nonzero/NotEqual:z:0"
          attr {
            key: "Toutput_types"
            value {
              list {
                type: DT_BOOL
              }
            }
          }
          attr {
            key: "_output_shapes"
            value {
              list {
                shape {
                }
              }
            }
          }
          experimental_debug_info {
            original_node_names: "OptionalFromValue_1"
          }
        }
        node_def {
          name: "OptionalFromValue_2"
          op: "OptionalFromValue"
          input: "count_nonzero/Cast:y:0"
          attr {
            key: "Toutput_types"
            value {
              list {
                type: DT_INT32
              }
            }
          }
          attr {
            key: "_output_shapes"
            value {
              list {
                shape {
                }
              }
            }
          }
          experimental_debug_info {
            original_node_names: "OptionalFromValue_2"
          }
        }
        node_def {
          name: "OptionalFromValue_3"
          op: "OptionalFromValue"
          input: "count_nonzero/Const:output:0"
          attr {
            key: "Toutput_types"
            value {
              list {
                type: DT_INT32
              }
            }
          }
          attr {
            key: "_output_shapes"
            value {
              list {
                shape {
                }
              }
            }
          }
          experimental_debug_info {
            original_node_names: "OptionalFromValue_3"
          }
        }
        node_def {
          name: "OptionalFromValue_4"
          op: "OptionalFromValue"
          input: "count_nonzero/nonzero_count:output:0"
          attr {
            key: "Toutput_types"
            value {
              list {
                type: DT_INT32
              }
            }
          }
          attr {
            key: "_output_shapes"
            value {
              list {
                shape {
                }
              }
            }
          }
          experimental_debug_info {
            original_node_names: "OptionalFromValue_4"
          }
        }
        ret {
          key: "cast"
          value: "Cast:y:0"
        }
        ret {
          key: "optionalfromvalue"
          value: "OptionalFromValue:optional:0"
        }
        ret {
          key: "optionalfromvalue_1"
          value: "OptionalFromValue_1:optional:0"
        }
        ret {
          key: "optionalfromvalue_2"
          value: "OptionalFromValue_2:optional:0"
        }
        ret {
          key: "optionalfromvalue_3"
          value: "OptionalFromValue_3:optional:0"
        }
        ret {
          key: "optionalfromvalue_4"
          value: "OptionalFromValue_4:optional:0"
        }
        attr {
          key: "_input_shapes"
          value {
            list {
              shape {
                dim {
                  size: -1
                }
                dim {
                  size: 10
                }
              }
            }
          }
        }
        arg_attr {
          key: 0
          value {
            attr {
              key: "_output_shapes"
              value {
                list {
                  shape {
                    dim {
                      size: -1
                    }
                    dim {
                      size: 10
                    }
                  }
                }
              }
            }
          }
        }
      }
      function {
        signature {
          name: "dnn_zero_fraction_1_cond_false_1809"
          input_arg {
            name: "count_nonzero_notequal_dnn_hiddenlayer_1_leakyrelu"
            type: DT_FLOAT
          }
          output_arg {
            name: "count_nonzero_nonzero_count"
            type: DT_INT64
          }
          output_arg {
            name: "optionalfromvalue"
            type: DT_VARIANT
          }
          output_arg {
            name: "optionalfromvalue_1"
            type: DT_VARIANT
          }
          output_arg {
            name: "optionalfromvalue_2"
            type: DT_VARIANT
          }
          output_arg {
            name: "optionalfromvalue_3"
            type: DT_VARIANT
          }
          output_arg {
            name: "optionalnone"
            type: DT_VARIANT
          }
        }
        node_def {
          name: "count_nonzero/zeros"
          op: "Const"
          attr {
            key: "_output_shapes"
            value {
              list {
                shape {
                }
              }
            }
          }
          attr {
            key: "dtype"
            value {
              type: DT_FLOAT
            }
          }
          attr {
            key: "value"
            value {
              tensor {
                dtype: DT_FLOAT
                tensor_shape {
                }
                float_val: 0.0
              }
            }
          }
          experimental_debug_info {
            original_node_names: "count_nonzero/zeros"
          }
        }
        node_def {
          name: "count_nonzero/NotEqual"
          op: "NotEqual"
          input: "count_nonzero_notequal_dnn_hiddenlayer_1_leakyrelu"
          input: "count_nonzero/zeros:output:0"
          attr {
            key: "T"
            value {
              type: DT_FLOAT
            }
          }
          attr {
            key: "_output_shapes"
            value {
              list {
                shape {
                  dim {
                    size: -1
                  }
                  dim {
                    size: 10
                  }
                }
              }
            }
          }
          experimental_debug_info {
            original_node_names: "count_nonzero/NotEqual"
          }
        }
        node_def {
          name: "count_nonzero/Cast"
          op: "Cast"
          input: "count_nonzero/NotEqual:z:0"
          attr {
            key: "DstT"
            value {
              type: DT_INT64
            }
          }
          attr {
            key: "SrcT"
            value {
              type: DT_BOOL
            }
          }
          attr {
            key: "_output_shapes"
            value {
              list {
                shape {
                  dim {
                    size: -1
                  }
                  dim {
                    size: 10
                  }
                }
              }
            }
          }
          experimental_debug_info {
            original_node_names: "count_nonzero/Cast"
          }
        }
        node_def {
          name: "count_nonzero/Const"
          op: "Const"
          attr {
            key: "_output_shapes"
            value {
              list {
                shape {
                  dim {
                    size: 2
                  }
                }
              }
            }
          }
          attr {
            key: "dtype"
            value {
              type: DT_INT32
            }
          }
          attr {
            key: "value"
            value {
              tensor {
                dtype: DT_INT32
                tensor_shape {
                  dim {
                    size: 2
                  }
                }
                tensor_content: "\000\000\000\000\001\000\000\000"
              }
            }
          }
          experimental_debug_info {
            original_node_names: "count_nonzero/Const"
          }
        }
        node_def {
          name: "count_nonzero/nonzero_count"
          op: "Sum"
          input: "count_nonzero/Cast:y:0"
          input: "count_nonzero/Const:output:0"
          attr {
            key: "T"
            value {
              type: DT_INT64
            }
          }
          attr {
            key: "_output_shapes"
            value {
              list {
                shape {
                }
              }
            }
          }
          experimental_debug_info {
            original_node_names: "count_nonzero/nonzero_count"
          }
        }
        node_def {
          name: "OptionalFromValue"
          op: "OptionalFromValue"
          input: "count_nonzero/zeros:output:0"
          attr {
            key: "Toutput_types"
            value {
              list {
                type: DT_FLOAT
              }
            }
          }
          attr {
            key: "_output_shapes"
            value {
              list {
                shape {
                }
              }
            }
          }
          experimental_debug_info {
            original_node_names: "OptionalFromValue"
          }
        }
        node_def {
          name: "OptionalFromValue_1"
          op: "OptionalFromValue"
          input: "count_nonzero/NotEqual:z:0"
          attr {
            key: "Toutput_types"
            value {
              list {
                type: DT_BOOL
              }
            }
          }
          attr {
            key: "_output_shapes"
            value {
              list {
                shape {
                }
              }
            }
          }
          experimental_debug_info {
            original_node_names: "OptionalFromValue_1"
          }
        }
        node_def {
          name: "OptionalFromValue_2"
          op: "OptionalFromValue"
          input: "count_nonzero/Cast:y:0"
          attr {
            key: "Toutput_types"
            value {
              list {
                type: DT_INT64
              }
            }
          }
          attr {
            key: "_output_shapes"
            value {
              list {
                shape {
                }
              }
            }
          }
          experimental_debug_info {
            original_node_names: "OptionalFromValue_2"
          }
        }
        node_def {
          name: "OptionalFromValue_3"
          op: "OptionalFromValue"
          input: "count_nonzero/Const:output:0"
          attr {
            key: "Toutput_types"
            value {
              list {
                type: DT_INT32
              }
            }
          }
          attr {
            key: "_output_shapes"
            value {
              list {
                shape {
                }
              }
            }
          }
          experimental_debug_info {
            original_node_names: "OptionalFromValue_3"
          }
        }
        node_def {
          name: "OptionalNone"
          op: "OptionalNone"
          attr {
            key: "_output_shapes"
            value {
              list {
                shape {
                }
              }
            }
          }
          experimental_debug_info {
            original_node_names: "OptionalNone"
          }
        }
        ret {
          key: "count_nonzero_nonzero_count"
          value: "count_nonzero/nonzero_count:output:0"
        }
        ret {
          key: "optionalfromvalue"
          value: "OptionalFromValue:optional:0"
        }
        ret {
          key: "optionalfromvalue_1"
          value: "OptionalFromValue_1:optional:0"
        }
        ret {
          key: "optionalfromvalue_2"
          value: "OptionalFromValue_2:optional:0"
        }
        ret {
          key: "optionalfromvalue_3"
          value: "OptionalFromValue_3:optional:0"
        }
        ret {
          key: "optionalnone"
          value: "OptionalNone:optional:0"
        }
        attr {
          key: "_input_shapes"
          value {
            list {
              shape {
                dim {
                  size: -1
                }
                dim {
                  size: 10
                }
              }
            }
          }
        }
        arg_attr {
          key: 0
          value {
            attr {
              key: "_output_shapes"
              value {
                list {
                  shape {
                    dim {
                      size: -1
                    }
                    dim {
                      size: 10
                    }
                  }
                }
              }
            }
          }
        }
      }
      function {
        signature {
          name: "dnn_zero_fraction_cond_true_1738"
          input_arg {
            name: "count_nonzero_notequal_dnn_hiddenlayer_0_leakyrelu"
            type: DT_FLOAT
          }
          output_arg {
            name: "cast"
            type: DT_INT64
          }
          output_arg {
            name: "optionalfromvalue"
            type: DT_VARIANT
          }
          output_arg {
            name: "optionalfromvalue_1"
            type: DT_VARIANT
          }
          output_arg {
            name: "optionalfromvalue_2"
            type: DT_VARIANT
          }
          output_arg {
            name: "optionalfromvalue_3"
            type: DT_VARIANT
          }
          output_arg {
            name: "optionalfromvalue_4"
            type: DT_VARIANT
          }
        }
        node_def {
          name: "count_nonzero/zeros"
          op: "Const"
          attr {
            key: "_output_shapes"
            value {
              list {
                shape {
                }
              }
            }
          }
          attr {
            key: "dtype"
            value {
              type: DT_FLOAT
            }
          }
          attr {
            key: "value"
            value {
              tensor {
                dtype: DT_FLOAT
                tensor_shape {
                }
                float_val: 0.0
              }
            }
          }
          experimental_debug_info {
            original_node_names: "count_nonzero/zeros"
          }
        }
        node_def {
          name: "count_nonzero/NotEqual"
          op: "NotEqual"
          input: "count_nonzero_notequal_dnn_hiddenlayer_0_leakyrelu"
          input: "count_nonzero/zeros:output:0"
          attr {
            key: "T"
            value {
              type: DT_FLOAT
            }
          }
          attr {
            key: "_output_shapes"
            value {
              list {
                shape {
                  dim {
                    size: -1
                  }
                  dim {
                    size: 30
                  }
                }
              }
            }
          }
          experimental_debug_info {
            original_node_names: "count_nonzero/NotEqual"
          }
        }
        node_def {
          name: "count_nonzero/Cast"
          op: "Cast"
          input: "count_nonzero/NotEqual:z:0"
          attr {
            key: "DstT"
            value {
              type: DT_INT32
            }
          }
          attr {
            key: "SrcT"
            value {
              type: DT_BOOL
            }
          }
          attr {
            key: "_output_shapes"
            value {
              list {
                shape {
                  dim {
                    size: -1
                  }
                  dim {
                    size: 30
                  }
                }
              }
            }
          }
          experimental_debug_info {
            original_node_names: "count_nonzero/Cast"
          }
        }
        node_def {
          name: "count_nonzero/Const"
          op: "Const"
          attr {
            key: "_output_shapes"
            value {
              list {
                shape {
                  dim {
                    size: 2
                  }
                }
              }
            }
          }
          attr {
            key: "dtype"
            value {
              type: DT_INT32
            }
          }
          attr {
            key: "value"
            value {
              tensor {
                dtype: DT_INT32
                tensor_shape {
                  dim {
                    size: 2
                  }
                }
                tensor_content: "\000\000\000\000\001\000\000\000"
              }
            }
          }
          experimental_debug_info {
            original_node_names: "count_nonzero/Const"
          }
        }
        node_def {
          name: "count_nonzero/nonzero_count"
          op: "Sum"
          input: "count_nonzero/Cast:y:0"
          input: "count_nonzero/Const:output:0"
          attr {
            key: "T"
            value {
              type: DT_INT32
            }
          }
          attr {
            key: "_output_shapes"
            value {
              list {
                shape {
                }
              }
            }
          }
          experimental_debug_info {
            original_node_names: "count_nonzero/nonzero_count"
          }
        }
        node_def {
          name: "Cast"
          op: "Cast"
          input: "count_nonzero/nonzero_count:output:0"
          attr {
            key: "DstT"
            value {
              type: DT_INT64
            }
          }
          attr {
            key: "SrcT"
            value {
              type: DT_INT32
            }
          }
          attr {
            key: "_output_shapes"
            value {
              list {
                shape {
                }
              }
            }
          }
          experimental_debug_info {
            original_node_names: "Cast"
          }
        }
        node_def {
          name: "OptionalFromValue"
          op: "OptionalFromValue"
          input: "count_nonzero/zeros:output:0"
          attr {
            key: "Toutput_types"
            value {
              list {
                type: DT_FLOAT
              }
            }
          }
          attr {
            key: "_output_shapes"
            value {
              list {
                shape {
                }
              }
            }
          }
          experimental_debug_info {
            original_node_names: "OptionalFromValue"
          }
        }
        node_def {
          name: "OptionalFromValue_1"
          op: "OptionalFromValue"
          input: "count_nonzero/NotEqual:z:0"
          attr {
            key: "Toutput_types"
            value {
              list {
                type: DT_BOOL
              }
            }
          }
          attr {
            key: "_output_shapes"
            value {
              list {
                shape {
                }
              }
            }
          }
          experimental_debug_info {
            original_node_names: "OptionalFromValue_1"
          }
        }
        node_def {
          name: "OptionalFromValue_2"
          op: "OptionalFromValue"
          input: "count_nonzero/Cast:y:0"
          attr {
            key: "Toutput_types"
            value {
              list {
                type: DT_INT32
              }
            }
          }
          attr {
            key: "_output_shapes"
            value {
              list {
                shape {
                }
              }
            }
          }
          experimental_debug_info {
            original_node_names: "OptionalFromValue_2"
          }
        }
        node_def {
          name: "OptionalFromValue_3"
          op: "OptionalFromValue"
          input: "count_nonzero/Const:output:0"
          attr {
            key: "Toutput_types"
            value {
              list {
                type: DT_INT32
              }
            }
          }
          attr {
            key: "_output_shapes"
            value {
              list {
                shape {
                }
              }
            }
          }
          experimental_debug_info {
            original_node_names: "OptionalFromValue_3"
          }
        }
        node_def {
          name: "OptionalFromValue_4"
          op: "OptionalFromValue"
          input: "count_nonzero/nonzero_count:output:0"
          attr {
            key: "Toutput_types"
            value {
              list {
                type: DT_INT32
              }
            }
          }
          attr {
            key: "_output_shapes"
            value {
              list {
                shape {
                }
              }
            }
          }
          experimental_debug_info {
            original_node_names: "OptionalFromValue_4"
          }
        }
        ret {
          key: "cast"
          value: "Cast:y:0"
        }
        ret {
          key: "optionalfromvalue"
          value: "OptionalFromValue:optional:0"
        }
        ret {
          key: "optionalfromvalue_1"
          value: "OptionalFromValue_1:optional:0"
        }
        ret {
          key: "optionalfromvalue_2"
          value: "OptionalFromValue_2:optional:0"
        }
        ret {
          key: "optionalfromvalue_3"
          value: "OptionalFromValue_3:optional:0"
        }
        ret {
          key: "optionalfromvalue_4"
          value: "OptionalFromValue_4:optional:0"
        }
        attr {
          key: "_input_shapes"
          value {
            list {
              shape {
                dim {
                  size: -1
                }
                dim {
                  size: 30
                }
              }
            }
          }
        }
        arg_attr {
          key: 0
          value {
            attr {
              key: "_output_shapes"
              value {
                list {
                  shape {
                    dim {
                      size: -1
                    }
                    dim {
                      size: 30
                    }
                  }
                }
              }
            }
          }
        }
      }
      function {
        signature {
          name: "dnn_zero_fraction_cond_false_1739"
          input_arg {
            name: "count_nonzero_notequal_dnn_hiddenlayer_0_leakyrelu"
            type: DT_FLOAT
          }
          output_arg {
            name: "count_nonzero_nonzero_count"
            type: DT_INT64
          }
          output_arg {
            name: "optionalfromvalue"
            type: DT_VARIANT
          }
          output_arg {
            name: "optionalfromvalue_1"
            type: DT_VARIANT
          }
          output_arg {
            name: "optionalfromvalue_2"
            type: DT_VARIANT
          }
          output_arg {
            name: "optionalfromvalue_3"
            type: DT_VARIANT
          }
          output_arg {
            name: "optionalnone"
            type: DT_VARIANT
          }
        }
        node_def {
          name: "count_nonzero/zeros"
          op: "Const"
          attr {
            key: "_output_shapes"
            value {
              list {
                shape {
                }
              }
            }
          }
          attr {
            key: "dtype"
            value {
              type: DT_FLOAT
            }
          }
          attr {
            key: "value"
            value {
              tensor {
                dtype: DT_FLOAT
                tensor_shape {
                }
                float_val: 0.0
              }
            }
          }
          experimental_debug_info {
            original_node_names: "count_nonzero/zeros"
          }
        }
        node_def {
          name: "count_nonzero/NotEqual"
          op: "NotEqual"
          input: "count_nonzero_notequal_dnn_hiddenlayer_0_leakyrelu"
          input: "count_nonzero/zeros:output:0"
          attr {
            key: "T"
            value {
              type: DT_FLOAT
            }
          }
          attr {
            key: "_output_shapes"
            value {
              list {
                shape {
                  dim {
                    size: -1
                  }
                  dim {
                    size: 30
                  }
                }
              }
            }
          }
          experimental_debug_info {
            original_node_names: "count_nonzero/NotEqual"
          }
        }
        node_def {
          name: "count_nonzero/Cast"
          op: "Cast"
          input: "count_nonzero/NotEqual:z:0"
          attr {
            key: "DstT"
            value {
              type: DT_INT64
            }
          }
          attr {
            key: "SrcT"
            value {
              type: DT_BOOL
            }
          }
          attr {
            key: "_output_shapes"
            value {
              list {
                shape {
                  dim {
                    size: -1
                  }
                  dim {
                    size: 30
                  }
                }
              }
            }
          }
          experimental_debug_info {
            original_node_names: "count_nonzero/Cast"
          }
        }
        node_def {
          name: "count_nonzero/Const"
          op: "Const"
          attr {
            key: "_output_shapes"
            value {
              list {
                shape {
                  dim {
                    size: 2
                  }
                }
              }
            }
          }
          attr {
            key: "dtype"
            value {
              type: DT_INT32
            }
          }
          attr {
            key: "value"
            value {
              tensor {
                dtype: DT_INT32
                tensor_shape {
                  dim {
                    size: 2
                  }
                }
                tensor_content: "\000\000\000\000\001\000\000\000"
              }
            }
          }
          experimental_debug_info {
            original_node_names: "count_nonzero/Const"
          }
        }
        node_def {
          name: "count_nonzero/nonzero_count"
          op: "Sum"
          input: "count_nonzero/Cast:y:0"
          input: "count_nonzero/Const:output:0"
          attr {
            key: "T"
            value {
              type: DT_INT64
            }
          }
          attr {
            key: "_output_shapes"
            value {
              list {
                shape {
                }
              }
            }
          }
          experimental_debug_info {
            original_node_names: "count_nonzero/nonzero_count"
          }
        }
        node_def {
          name: "OptionalFromValue"
          op: "OptionalFromValue"
          input: "count_nonzero/zeros:output:0"
          attr {
            key: "Toutput_types"
            value {
              list {
                type: DT_FLOAT
              }
            }
          }
          attr {
            key: "_output_shapes"
            value {
              list {
                shape {
                }
              }
            }
          }
          experimental_debug_info {
            original_node_names: "OptionalFromValue"
          }
        }
        node_def {
          name: "OptionalFromValue_1"
          op: "OptionalFromValue"
          input: "count_nonzero/NotEqual:z:0"
          attr {
            key: "Toutput_types"
            value {
              list {
                type: DT_BOOL
              }
            }
          }
          attr {
            key: "_output_shapes"
            value {
              list {
                shape {
                }
              }
            }
          }
          experimental_debug_info {
            original_node_names: "OptionalFromValue_1"
          }
        }
        node_def {
          name: "OptionalFromValue_2"
          op: "OptionalFromValue"
          input: "count_nonzero/Cast:y:0"
          attr {
            key: "Toutput_types"
            value {
              list {
                type: DT_INT64
              }
            }
          }
          attr {
            key: "_output_shapes"
            value {
              list {
                shape {
                }
              }
            }
          }
          experimental_debug_info {
            original_node_names: "OptionalFromValue_2"
          }
        }
        node_def {
          name: "OptionalFromValue_3"
          op: "OptionalFromValue"
          input: "count_nonzero/Const:output:0"
          attr {
            key: "Toutput_types"
            value {
              list {
                type: DT_INT32
              }
            }
          }
          attr {
            key: "_output_shapes"
            value {
              list {
                shape {
                }
              }
            }
          }
          experimental_debug_info {
            original_node_names: "OptionalFromValue_3"
          }
        }
        node_def {
          name: "OptionalNone"
          op: "OptionalNone"
          attr {
            key: "_output_shapes"
            value {
              list {
                shape {
                }
              }
            }
          }
          experimental_debug_info {
            original_node_names: "OptionalNone"
          }
        }
        ret {
          key: "count_nonzero_nonzero_count"
          value: "count_nonzero/nonzero_count:output:0"
        }
        ret {
          key: "optionalfromvalue"
          value: "OptionalFromValue:optional:0"
        }
        ret {
          key: "optionalfromvalue_1"
          value: "OptionalFromValue_1:optional:0"
        }
        ret {
          key: "optionalfromvalue_2"
          value: "OptionalFromValue_2:optional:0"
        }
        ret {
          key: "optionalfromvalue_3"
          value: "OptionalFromValue_3:optional:0"
        }
        ret {
          key: "optionalnone"
          value: "OptionalNone:optional:0"
        }
        attr {
          key: "_input_shapes"
          value {
            list {
              shape {
                dim {
                  size: -1
                }
                dim {
                  size: 30
                }
              }
            }
          }
        }
        arg_attr {
          key: 0
          value {
            attr {
              key: "_output_shapes"
              value {
                list {
                  shape {
                    dim {
                      size: -1
                    }
                    dim {
                      size: 30
                    }
                  }
                }
              }
            }
          }
        }
      }
    }
    versions {
      producer: 808
      min_consumer: 12
    }
  }
  saver_def {
    filename_tensor_name: "save/Const:0"
    save_tensor_name: "save/Identity:0"
    restore_op_name: "save/restore_all"
    max_to_keep: 5
    sharded: true
    keep_checkpoint_every_n_hours: 10000.0
    version: V2
  }
  collection_def {
    key: "global_step"
    value {
      bytes_list {
        value: "\n\rglobal_step:0\022\022global_step/Assign\032!global_step/Read/ReadVariableOp:0(\0012\037global_step/Initializer/zeros:0H\003"
      }
    }
  }
  collection_def {
    key: "saved_model_main_op"
    value {
      node_list {
        value: "group_deps"
      }
    }
  }
  collection_def {
    key: "summaries"
    value {
      node_list {
        value: "dnn/hiddenlayer_0/fraction_of_zero_values:0"
        value: "dnn/hiddenlayer_0/activation:0"
        value: "dnn/hiddenlayer_1/fraction_of_zero_values:0"
        value: "dnn/hiddenlayer_1/activation:0"
        value: "dnn/logits/fraction_of_zero_values:0"
        value: "dnn/logits/activation:0"
      }
    }
  }
  collection_def {
    key: "trainable_variables"
    value {
      bytes_list {
        value: "\n\032dnn/hiddenlayer_0/kernel:0\022\037dnn/hiddenlayer_0/kernel/Assign\032.dnn/hiddenlayer_0/kernel/Read/ReadVariableOp:0(\00125dnn/hiddenlayer_0/kernel/Initializer/random_uniform:08\001"
        value: "\n\030dnn/hiddenlayer_0/bias:0\022\035dnn/hiddenlayer_0/bias/Assign\032,dnn/hiddenlayer_0/bias/Read/ReadVariableOp:0(\0012*dnn/hiddenlayer_0/bias/Initializer/zeros:08\001"
        value: "\n\032dnn/hiddenlayer_1/kernel:0\022\037dnn/hiddenlayer_1/kernel/Assign\032.dnn/hiddenlayer_1/kernel/Read/ReadVariableOp:0(\00125dnn/hiddenlayer_1/kernel/Initializer/random_uniform:08\001"
        value: "\n\030dnn/hiddenlayer_1/bias:0\022\035dnn/hiddenlayer_1/bias/Assign\032,dnn/hiddenlayer_1/bias/Read/ReadVariableOp:0(\0012*dnn/hiddenlayer_1/bias/Initializer/zeros:08\001"
        value: "\n\023dnn/logits/kernel:0\022\030dnn/logits/kernel/Assign\032\'dnn/logits/kernel/Read/ReadVariableOp:0(\0012.dnn/logits/kernel/Initializer/random_uniform:08\001"
        value: "\n\021dnn/logits/bias:0\022\026dnn/logits/bias/Assign\032%dnn/logits/bias/Read/ReadVariableOp:0(\0012#dnn/logits/bias/Initializer/zeros:08\001"
      }
    }
  }
  collection_def {
    key: "variables"
    value {
      bytes_list {
        value: "\n\rglobal_step:0\022\022global_step/Assign\032!global_step/Read/ReadVariableOp:0(\0012\037global_step/Initializer/zeros:0H\003"
        value: "\n\032dnn/hiddenlayer_0/kernel:0\022\037dnn/hiddenlayer_0/kernel/Assign\032.dnn/hiddenlayer_0/kernel/Read/ReadVariableOp:0(\00125dnn/hiddenlayer_0/kernel/Initializer/random_uniform:08\001"
        value: "\n\030dnn/hiddenlayer_0/bias:0\022\035dnn/hiddenlayer_0/bias/Assign\032,dnn/hiddenlayer_0/bias/Read/ReadVariableOp:0(\0012*dnn/hiddenlayer_0/bias/Initializer/zeros:08\001"
        value: "\n\032dnn/hiddenlayer_1/kernel:0\022\037dnn/hiddenlayer_1/kernel/Assign\032.dnn/hiddenlayer_1/kernel/Read/ReadVariableOp:0(\00125dnn/hiddenlayer_1/kernel/Initializer/random_uniform:08\001"
        value: "\n\030dnn/hiddenlayer_1/bias:0\022\035dnn/hiddenlayer_1/bias/Assign\032,dnn/hiddenlayer_1/bias/Read/ReadVariableOp:0(\0012*dnn/hiddenlayer_1/bias/Initializer/zeros:08\001"
        value: "\n\023dnn/logits/kernel:0\022\030dnn/logits/kernel/Assign\032\'dnn/logits/kernel/Read/ReadVariableOp:0(\0012.dnn/logits/kernel/Initializer/random_uniform:08\001"
        value: "\n\021dnn/logits/bias:0\022\026dnn/logits/bias/Assign\032%dnn/logits/bias/Read/ReadVariableOp:0(\0012#dnn/logits/bias/Initializer/zeros:08\001"
      }
    }
  }
  signature_def {
    key: "classification"
    value {
      inputs {
        key: "inputs"
        value {
          name: "input_example_tensor:0"
          dtype: DT_STRING
          tensor_shape {
            dim {
              size: -1
            }
          }
        }
      }
      outputs {
        key: "classes"
        value {
          name: "head/Tile:0"
          dtype: DT_STRING
          tensor_shape {
            dim {
              size: -1
            }
            dim {
              size: 10
            }
          }
        }
      }
      outputs {
        key: "scores"
        value {
          name: "head/predictions/probabilities:0"
          dtype: DT_FLOAT
          tensor_shape {
            dim {
              size: -1
            }
            dim {
              size: 10
            }
          }
        }
      }
      method_name: "tensorflow/serving/classify"
    }
  }
  signature_def {
    key: "predict"
    value {
      inputs {
        key: "examples"
        value {
          name: "input_example_tensor:0"
          dtype: DT_STRING
          tensor_shape {
            dim {
              size: -1
            }
          }
        }
      }
      outputs {
        key: "all_class_ids"
        value {
          name: "head/predictions/Tile:0"
          dtype: DT_INT32
          tensor_shape {
            dim {
              size: -1
            }
            dim {
              size: 10
            }
          }
        }
      }
      outputs {
        key: "all_classes"
        value {
          name: "head/predictions/Tile_1:0"
          dtype: DT_STRING
          tensor_shape {
            dim {
              size: -1
            }
            dim {
              size: 10
            }
          }
        }
      }
      outputs {
        key: "class_ids"
        value {
          name: "head/predictions/ExpandDims:0"
          dtype: DT_INT64
          tensor_shape {
            dim {
              size: -1
            }
            dim {
              size: 1
            }
          }
        }
      }
      outputs {
        key: "classes"
        value {
          name: "head/predictions/str_classes:0"
          dtype: DT_STRING
          tensor_shape {
            dim {
              size: -1
            }
            dim {
              size: 1
            }
          }
        }
      }
      outputs {
        key: "logits"
        value {
          name: "dnn/logits/BiasAdd:0"
          dtype: DT_FLOAT
          tensor_shape {
            dim {
              size: -1
            }
            dim {
              size: 10
            }
          }
        }
      }
      outputs {
        key: "probabilities"
        value {
          name: "head/predictions/probabilities:0"
          dtype: DT_FLOAT
          tensor_shape {
            dim {
              size: -1
            }
            dim {
              size: 10
            }
          }
        }
      }
      method_name: "tensorflow/serving/predict"
    }
  }
  signature_def {
    key: "serving_default"
    value {
      inputs {
        key: "inputs"
        value {
          name: "input_example_tensor:0"
          dtype: DT_STRING
          tensor_shape {
            dim {
              size: -1
            }
          }
        }
      }
      outputs {
        key: "classes"
        value {
          name: "head/Tile:0"
          dtype: DT_STRING
          tensor_shape {
            dim {
              size: -1
            }
            dim {
              size: 10
            }
          }
        }
      }
      outputs {
        key: "scores"
        value {
          name: "head/predictions/probabilities:0"
          dtype: DT_FLOAT
          tensor_shape {
            dim {
              size: -1
            }
            dim {
              size: 10
            }
          }
        }
      }
      method_name: "tensorflow/serving/classify"
    }
  }
}
